{
  "Layers": [
    {
      "Name": "/patch_embed/proj/Conv",
      "LayerType": "CaskConvolution",
      "Inputs": [
        {
          "Name": "input",
          "Location": "Device",
          "Dimensions": [
            1,
            3,
            518,
            518
          ],
          "Format/Datatype": "Float"
        }
      ],
      "Outputs": [
        {
          "Name": "/patch_embed/proj/Conv_output_0",
          "Location": "Device",
          "Dimensions": [
            1,
            384,
            37,
            37
          ],
          "Format/Datatype": "Float"
        }
      ],
      "ParameterType": "Convolution",
      "Kernel": [
        14,
        14
      ],
      "PaddingMode": "kEXPLICIT_ROUND_DOWN",
      "PrePadding": [
        0,
        0
      ],
      "PostPadding": [
        0,
        0
      ],
      "Stride": [
        14,
        14
      ],
      "Dilation": [
        1,
        1
      ],
      "OutMaps": 384,
      "Groups": 1,
      "Weights": {
        "Type": "Float",
        "Count": 225792
      },
      "Bias": {
        "Type": "Float",
        "Count": 384
      },
      "HasBias": 1,
      "HasReLU": 0,
      "HasSparseWeights": 0,
      "HasDynamicFilter": 0,
      "HasDynamicBias": 0,
      "HasResidual": 0,
      "ConvXAsActInputIdx": -1,
      "BiasAsActInputIdx": -1,
      "ResAsActInputIdx": -1,
      "Activation": "NONE",
      "TacticName": "sm80_xmma_fprop_implicit_gemm_indexed_f32f32_f32f32_f32_nchwkcrs_nchw_tilesize64x64x8_stage3_warpsize1x4x1_g1_ffma_aligna4_alignc4",
      "TacticValue": "0xd828f024626fa982",
      "StreamId": 0,
      "Metadata": "[ONNX Layer: /patch_embed/proj/Conv]"
    },
    {
      "Name": "__myl_Tran_myl1_0",
      "LayerType": "kgen",
      "Inputs": [
        {
          "Name": "/patch_embed/proj/Conv_output_0",
          "Dimensions": [
            1,
            384,
            1369
          ],
          "Format/Datatype": "Float"
        }
      ],
      "Outputs": [
        {
          "Name": "__myln_k_arg__bb1_2_myl1",
          "Dimensions": [
            1,
            1369,
            384
          ],
          "Format/Datatype": "Float"
        }
      ],
      "TacticName": "__myl_Tran_0x4f1949d571c07454624a83e6b1940c90",
      "StreamId": 0,
      "Metadata": "[ONNX Layer: /patch_embed/Reshape]\u001e[ONNX Layer: /patch_embed/Transpose]"
    },
    {
      "Name": "__myl_ConcAddMeanSubMulMeanAddSqrtDivMulMulAdd_myl1_1",
      "LayerType": "kgen",
      "Inputs": [
        {
          "Name": "__myln_k_arg__bb1_2_myl1",
          "Dimensions": [
            1,
            1369,
            384
          ],
          "Format/Datatype": "Float"
        }
      ],
      "Outputs": [
        {
          "Name": "__mye57912_4_myl1",
          "Dimensions": [
            1,
            1370,
            384
          ],
          "Format/Datatype": "Float"
        },
        {
          "Name": "__myln_k_arg__bb1_3_myl1",
          "Dimensions": [
            1,
            1370,
            384
          ],
          "Format/Datatype": "Float"
        }
      ],
      "TacticName": "__myl_ConcAddMeanSubMulMeanAddSqrtDivMulMulAdd_0xb24c7a1561efacd44489d72eb4da0c9a",
      "StreamId": 0,
      "Metadata": "[ONNX Layer: /Concat]\u001f[ONNX Layer: /Expand]\u001f[ONNX Layer: /blocks.0/norm1/ReduceMean_1]\u001f[ONNX Layer: /blocks.0/norm1/Sub]\u001f[ONNX Layer: /blocks.0/norm1/Pow]\u001f[ONNX Layer: /blocks.0/norm1/ReduceMean]\u001f[ONNX Layer: /Add]\u001f[ONNX Layer: /blocks.0/norm1/Div]\u001f[ONNX Layer: /blocks.0/norm1/Add_1]\u001f[ONNX Layer: /blocks.0/norm1/Mul]\u001f[ONNX Layer: /blocks.0/norm1/Sqrt]\u001f[ONNX Layer: /blocks.0/norm1/Add]"
    },
    {
      "Name": "__mye55480+__mye55468+__mye55456_myl1_2",
      "LayerType": "gemm",
      "Inputs": [
        {
          "Name": "__mye57912_4_myl1",
          "Dimensions": [
            1,
            1370,
            384
          ],
          "Format/Datatype": "Float"
        }
      ],
      "Outputs": [
        {
          "Name": "__mye57912_myl1",
          "Dimensions": [
            3,
            1370,
            384
          ],
          "Format/Datatype": "Float"
        }
      ],
      "TacticName": "sm80_xmma_gemm_f32f32_tf32f32_f32_nn_n_tilesize64x128x16_stage4_warpsize2x2x1_tensor16x8x8",
      "StreamId": 0,
      "Metadata": "[ONNX Layer: /blocks.0/attn/qkv/MatMul]\u001f[ONNX Layer: /blocks.0/attn/qkv/Add]"
    },
    {
      "Name": "/blocks_0/attn/MatMul_myl1_3",
      "LayerType": "gemm",
      "Inputs": [
        {
          "Name": "__mye57912_myl1",
          "Dimensions": [
            6,
            1370,
            64
          ],
          "Format/Datatype": "Float"
        },
        {
          "Name": "__mye57912_myl1",
          "Dimensions": [
            6,
            64,
            1370
          ],
          "Format/Datatype": "Float"
        }
      ],
      "Outputs": [
        {
          "Name": "__mye53957_myl1",
          "Dimensions": [
            6,
            1370,
            1370
          ],
          "Format/Datatype": "Float"
        }
      ],
      "TacticName": "sm80_xmma_gemm_f32f32_tf32f32_f32_tn_n_tilesize64x128x16_stage4_warpsize2x2x1_tensor16x8x8_aligna4_alignc4",
      "StreamId": 0,
      "Metadata": "[ONNX Layer: /blocks.0/attn/MatMul]\u001f[ONNX Layer: /blocks.0/attn/Mul]"
    },
    {
      "Name": "__myl_MaxrSubExpSumDivMul_myl1_4",
      "LayerType": "kgen",
      "Inputs": [
        {
          "Name": "__mye53957_myl1",
          "Dimensions": [
            8220,
            1370
          ],
          "Format/Datatype": "Float"
        },
        {
          "Name": "__mye53957_myl1",
          "Dimensions": [
            8220,
            1370
          ],
          "Format/Datatype": "Float"
        }
      ],
      "Outputs": [
        {
          "Name": "/blocks_0/attn/Softmax_output.1_myl1",
          "Dimensions": [
            8220,
            1370
          ],
          "Format/Datatype": "Float"
        }
      ],
      "TacticName": "__myl_MaxrSubExpSumDivMul_0xe2034576008d721e860d6057ab737a9a",
      "StreamId": 0,
      "Metadata": "[ONNX Layer: /blocks.0/attn/Softmax]"
    },
    {
      "Name": "/blocks_0/attn/MatMul_1_myl1_5",
      "LayerType": "gemm",
      "Inputs": [
        {
          "Name": "/blocks_0/attn/Softmax_output.1_myl1",
          "Dimensions": [
            6,
            1370,
            1370
          ],
          "Format/Datatype": "Float"
        },
        {
          "Name": "__mye57912_myl1",
          "Dimensions": [
            6,
            1370,
            64
          ],
          "Format/Datatype": "Float"
        }
      ],
      "Outputs": [
        {
          "Name": "__mye53978_myl1",
          "Dimensions": [
            6,
            1370,
            64
          ],
          "Format/Datatype": "Float"
        }
      ],
      "TacticName": "sm80_xmma_gemm_f32f32_f32f32_f32_nn_n_tilesize64x64x8_stage3_warpsize1x4x1_ffma_aligna4_alignc4",
      "StreamId": 0,
      "Metadata": "[ONNX Layer: /blocks.0/attn/MatMul_1]"
    },
    {
      "Name": "/blocks_0/attn/proj/MatMul_myl1_6",
      "LayerType": "gemm",
      "Inputs": [
        {
          "Name": "__mye53978_myl1",
          "Dimensions": [
            1,
            1370,
            384
          ],
          "Format/Datatype": "Float"
        }
      ],
      "Outputs": [
        {
          "Name": "__myln_k_arg__bb1_9_myl1",
          "Dimensions": [
            1,
            1370,
            384
          ],
          "Format/Datatype": "Float"
        }
      ],
      "TacticName": "sm86_xmma_gemm_f32f32_tf32f32_f32_tn_n_tilesize64x64x64_stage3_warpsize2x2x1_tensor16x8x8",
      "StreamId": 0,
      "Metadata": "[ONNX Layer: /blocks.0/attn/proj/MatMul]\u001f[ONNX Layer: /blocks.0/attn/proj/Add]"
    },
    {
      "Name": "__myl_MulAddMeanSubMulMeanAddSqrtDivMulMulAdd_myl1_7",
      "LayerType": "kgen",
      "Inputs": [
        {
          "Name": "__myln_k_arg__bb1_3_myl1",
          "Dimensions": [
            1,
            1370,
            384
          ],
          "Format/Datatype": "Float"
        },
        {
          "Name": "__myln_k_arg__bb1_9_myl1",
          "Dimensions": [
            1,
            1370,
            384
          ],
          "Format/Datatype": "Float"
        }
      ],
      "Outputs": [
        {
          "Name": "/blocks_0/mlp/fc1/Add_output_0.1_11_myl1",
          "Dimensions": [
            1,
            1370,
            384
          ],
          "Format/Datatype": "Float"
        },
        {
          "Name": "__myln_k_arg__bb1_10_myl1",
          "Dimensions": [
            1,
            1370,
            384
          ],
          "Format/Datatype": "Float"
        }
      ],
      "TacticName": "__myl_MulAddMeanSubMulMeanAddSqrtDivMulMulAdd_0x1468acd29c53e73f8b9006fcdc1f72ab",
      "StreamId": 0,
      "Metadata": "[ONNX Layer: /blocks.0/ls1/Mul]\u001f[ONNX Layer: /blocks.0/norm2/ReduceMean_1]\u001f[ONNX Layer: /blocks.0/norm2/Sub]\u001f[ONNX Layer: /blocks.0/norm2/Pow]\u001f[ONNX Layer: /blocks.0/norm2/ReduceMean]\u001f[ONNX Layer: /blocks.0/Add]\u001f[ONNX Layer: /blocks.0/norm2/Div]\u001f[ONNX Layer: /blocks.0/norm2/Add_1]\u001f[ONNX Layer: /blocks.0/norm2/Mul]\u001f[ONNX Layer: /blocks.0/norm2/Sqrt]\u001f[ONNX Layer: /blocks.0/norm2/Add]"
    },
    {
      "Name": "/blocks_0/mlp/fc1/MatMul_myl1_8",
      "LayerType": "gemm",
      "Inputs": [
        {
          "Name": "/blocks_0/mlp/fc1/Add_output_0.1_11_myl1",
          "Dimensions": [
            1,
            1370,
            384
          ],
          "Format/Datatype": "Float"
        }
      ],
      "Outputs": [
        {
          "Name": "__myln_k_arg__bb1_12_myl1",
          "Dimensions": [
            1,
            1370,
            1536
          ],
          "Format/Datatype": "Float"
        }
      ],
      "TacticName": "sm80_xmma_gemm_f32f32_tf32f32_f32_nn_n_tilesize64x128x16_stage4_warpsize2x2x1_tensor16x8x8",
      "StreamId": 0,
      "Metadata": "[ONNX Layer: /blocks.0/mlp/fc1/MatMul]\u001f[ONNX Layer: /blocks.0/mlp/fc1/Add]"
    },
    {
      "Name": "__myl_DivErfAddMulMul_myl1_9",
      "LayerType": "kgen",
      "Inputs": [
        {
          "Name": "__myln_k_arg__bb1_12_myl1",
          "Dimensions": [
            1,
            1370,
            1536
          ],
          "Format/Datatype": "Float"
        },
        {
          "Name": "__myln_k_arg__bb1_12_myl1",
          "Dimensions": [
            1,
            1370,
            1536
          ],
          "Format/Datatype": "Float"
        }
      ],
      "Outputs": [
        {
          "Name": "/blocks_0/mlp/fc2/Add_output_0.1_13_myl1",
          "Dimensions": [
            1,
            1370,
            1536
          ],
          "Format/Datatype": "Float"
        }
      ],
      "TacticName": "__myl_DivErfAddMulMul_0xa13e1a5ba2820702b6e38bbb9fd5254b",
      "StreamId": 0,
      "Metadata": "[ONNX Layer: /blocks.0/mlp/act/Mul_1]\u001f[ONNX Layer: /blocks.0/mlp/act/Mul]\u001f[ONNX Layer: /blocks.0/mlp/act/Add]\u001f[ONNX Layer: /blocks.0/mlp/act/Div]\u001f[ONNX Layer: /blocks.0/mlp/act/Erf]"
    },
    {
      "Name": "/blocks_0/mlp/fc2/MatMul_myl1_10",
      "LayerType": "gemm",
      "Inputs": [
        {
          "Name": "/blocks_0/mlp/fc2/Add_output_0.1_13_myl1",
          "Dimensions": [
            1,
            1370,
            1536
          ],
          "Format/Datatype": "Float"
        }
      ],
      "Outputs": [
        {
          "Name": "__myln_k_arg__bb1_14_myl1",
          "Dimensions": [
            1,
            1370,
            384
          ],
          "Format/Datatype": "Float"
        }
      ],
      "TacticName": "sm86_xmma_gemm_f32f32_tf32f32_f32_tn_n_tilesize64x64x64_stage3_warpsize2x2x1_tensor16x8x8",
      "StreamId": 0,
      "Metadata": "[ONNX Layer: /blocks.0/mlp/fc2/MatMul]\u001f[ONNX Layer: /blocks.0/mlp/fc2/Add]"
    },
    {
      "Name": "__myl_MulAddMeanSubMulMeanAddSqrtDivMulMulAdd_myl1_11",
      "LayerType": "kgen",
      "Inputs": [
        {
          "Name": "__myln_k_arg__bb1_10_myl1",
          "Dimensions": [
            1,
            1370,
            384
          ],
          "Format/Datatype": "Float"
        },
        {
          "Name": "__myln_k_arg__bb1_14_myl1",
          "Dimensions": [
            1,
            1370,
            384
          ],
          "Format/Datatype": "Float"
        }
      ],
      "Outputs": [
        {
          "Name": "__mye57895_16_myl1",
          "Dimensions": [
            1,
            1370,
            384
          ],
          "Format/Datatype": "Float"
        },
        {
          "Name": "__myln_k_arg__bb1_15_myl1",
          "Dimensions": [
            1,
            1370,
            384
          ],
          "Format/Datatype": "Float"
        }
      ],
      "TacticName": "__myl_MulAddMeanSubMulMeanAddSqrtDivMulMulAdd_0x1468acd29c53e73f8b9006fcdc1f72ab",
      "StreamId": 0,
      "Metadata": "[ONNX Layer: /blocks.0/ls2/Mul]\u001f[ONNX Layer: /blocks.1/norm1/ReduceMean_1]\u001f[ONNX Layer: /blocks.1/norm1/Sub]\u001f[ONNX Layer: /blocks.1/norm1/Pow]\u001f[ONNX Layer: /blocks.1/norm1/ReduceMean]\u001f[ONNX Layer: /blocks.0/Add_1]\u001f[ONNX Layer: /blocks.1/norm1/Div]\u001f[ONNX Layer: /blocks.1/norm1/Add_1]\u001f[ONNX Layer: /blocks.1/norm1/Mul]\u001f[ONNX Layer: /blocks.1/norm1/Sqrt]\u001f[ONNX Layer: /blocks.1/norm1/Add]"
    },
    {
      "Name": "__mye55595+__mye55583+__mye55571_myl1_12",
      "LayerType": "gemm",
      "Inputs": [
        {
          "Name": "__mye57895_16_myl1",
          "Dimensions": [
            1,
            1370,
            384
          ],
          "Format/Datatype": "Float"
        }
      ],
      "Outputs": [
        {
          "Name": "__mye57895_myl1",
          "Dimensions": [
            3,
            1370,
            384
          ],
          "Format/Datatype": "Float"
        }
      ],
      "TacticName": "sm80_xmma_gemm_f32f32_tf32f32_f32_nn_n_tilesize64x128x16_stage4_warpsize2x2x1_tensor16x8x8",
      "StreamId": 0,
      "Metadata": "[ONNX Layer: /blocks.1/attn/qkv/MatMul]\u001f[ONNX Layer: /blocks.1/attn/qkv/Add]"
    },
    {
      "Name": "/blocks_1/attn/MatMul_myl1_13",
      "LayerType": "gemm",
      "Inputs": [
        {
          "Name": "__mye57895_myl1",
          "Dimensions": [
            6,
            1370,
            64
          ],
          "Format/Datatype": "Float"
        },
        {
          "Name": "__mye57895_myl1",
          "Dimensions": [
            6,
            64,
            1370
          ],
          "Format/Datatype": "Float"
        }
      ],
      "Outputs": [
        {
          "Name": "__mye54043_myl1",
          "Dimensions": [
            6,
            1370,
            1370
          ],
          "Format/Datatype": "Float"
        }
      ],
      "TacticName": "sm80_xmma_gemm_f32f32_tf32f32_f32_tn_n_tilesize64x128x16_stage4_warpsize2x2x1_tensor16x8x8_aligna4_alignc4",
      "StreamId": 0,
      "Metadata": "[ONNX Layer: /blocks.1/attn/MatMul]\u001f[ONNX Layer: /blocks.1/attn/Mul]"
    },
    {
      "Name": "__myl_MaxrSubExpSumDivMul_myl1_14",
      "LayerType": "kgen",
      "Inputs": [
        {
          "Name": "__mye54043_myl1",
          "Dimensions": [
            8220,
            1370
          ],
          "Format/Datatype": "Float"
        },
        {
          "Name": "__mye54043_myl1",
          "Dimensions": [
            8220,
            1370
          ],
          "Format/Datatype": "Float"
        }
      ],
      "Outputs": [
        {
          "Name": "/blocks_1/attn/Softmax_output.1_myl1",
          "Dimensions": [
            8220,
            1370
          ],
          "Format/Datatype": "Float"
        }
      ],
      "TacticName": "__myl_MaxrSubExpSumDivMul_0xe2034576008d721e860d6057ab737a9a",
      "StreamId": 0,
      "Metadata": "[ONNX Layer: /blocks.1/attn/Softmax]"
    },
    {
      "Name": "/blocks_1/attn/MatMul_1_myl1_15",
      "LayerType": "gemm",
      "Inputs": [
        {
          "Name": "/blocks_1/attn/Softmax_output.1_myl1",
          "Dimensions": [
            6,
            1370,
            1370
          ],
          "Format/Datatype": "Float"
        },
        {
          "Name": "__mye57895_myl1",
          "Dimensions": [
            6,
            1370,
            64
          ],
          "Format/Datatype": "Float"
        }
      ],
      "Outputs": [
        {
          "Name": "__mye54064_myl1",
          "Dimensions": [
            6,
            1370,
            64
          ],
          "Format/Datatype": "Float"
        }
      ],
      "TacticName": "sm80_xmma_gemm_f32f32_f32f32_f32_nn_n_tilesize64x64x8_stage3_warpsize1x4x1_ffma_aligna4_alignc4",
      "StreamId": 0,
      "Metadata": "[ONNX Layer: /blocks.1/attn/MatMul_1]"
    },
    {
      "Name": "/blocks_1/attn/proj/MatMul_myl1_16",
      "LayerType": "gemm",
      "Inputs": [
        {
          "Name": "__mye54064_myl1",
          "Dimensions": [
            1,
            1370,
            384
          ],
          "Format/Datatype": "Float"
        }
      ],
      "Outputs": [
        {
          "Name": "__myln_k_arg__bb1_21_myl1",
          "Dimensions": [
            1,
            1370,
            384
          ],
          "Format/Datatype": "Float"
        }
      ],
      "TacticName": "sm86_xmma_gemm_f32f32_tf32f32_f32_tn_n_tilesize64x64x64_stage3_warpsize2x2x1_tensor16x8x8",
      "StreamId": 0,
      "Metadata": "[ONNX Layer: /blocks.1/attn/proj/MatMul]\u001f[ONNX Layer: /blocks.1/attn/proj/Add]"
    },
    {
      "Name": "__myl_MulAddMeanSubMulMeanAddSqrtDivMulMulAdd_myl1_17",
      "LayerType": "kgen",
      "Inputs": [
        {
          "Name": "__myln_k_arg__bb1_15_myl1",
          "Dimensions": [
            1,
            1370,
            384
          ],
          "Format/Datatype": "Float"
        },
        {
          "Name": "__myln_k_arg__bb1_21_myl1",
          "Dimensions": [
            1,
            1370,
            384
          ],
          "Format/Datatype": "Float"
        }
      ],
      "Outputs": [
        {
          "Name": "/blocks_1/mlp/fc1/Add_output_0.1_23_myl1",
          "Dimensions": [
            1,
            1370,
            384
          ],
          "Format/Datatype": "Float"
        },
        {
          "Name": "__myln_k_arg__bb1_22_myl1",
          "Dimensions": [
            1,
            1370,
            384
          ],
          "Format/Datatype": "Float"
        }
      ],
      "TacticName": "__myl_MulAddMeanSubMulMeanAddSqrtDivMulMulAdd_0x1468acd29c53e73f8b9006fcdc1f72ab",
      "StreamId": 0,
      "Metadata": "[ONNX Layer: /blocks.1/ls1/Mul]\u001f[ONNX Layer: /blocks.1/norm2/ReduceMean_1]\u001f[ONNX Layer: /blocks.1/norm2/Sub]\u001f[ONNX Layer: /blocks.1/norm2/Pow]\u001f[ONNX Layer: /blocks.1/norm2/ReduceMean]\u001f[ONNX Layer: /blocks.1/Add]\u001f[ONNX Layer: /blocks.1/norm2/Div]\u001f[ONNX Layer: /blocks.1/norm2/Add_1]\u001f[ONNX Layer: /blocks.1/norm2/Mul]\u001f[ONNX Layer: /blocks.1/norm2/Sqrt]\u001f[ONNX Layer: /blocks.1/norm2/Add]"
    },
    {
      "Name": "/blocks_1/mlp/fc1/MatMul_myl1_18",
      "LayerType": "gemm",
      "Inputs": [
        {
          "Name": "/blocks_1/mlp/fc1/Add_output_0.1_23_myl1",
          "Dimensions": [
            1,
            1370,
            384
          ],
          "Format/Datatype": "Float"
        }
      ],
      "Outputs": [
        {
          "Name": "__myln_k_arg__bb1_24_myl1",
          "Dimensions": [
            1,
            1370,
            1536
          ],
          "Format/Datatype": "Float"
        }
      ],
      "TacticName": "sm80_xmma_gemm_f32f32_tf32f32_f32_nn_n_tilesize64x128x16_stage4_warpsize2x2x1_tensor16x8x8",
      "StreamId": 0,
      "Metadata": "[ONNX Layer: /blocks.1/mlp/fc1/MatMul]\u001f[ONNX Layer: /blocks.1/mlp/fc1/Add]"
    },
    {
      "Name": "__myl_DivErfAddMulMul_myl1_19",
      "LayerType": "kgen",
      "Inputs": [
        {
          "Name": "__myln_k_arg__bb1_24_myl1",
          "Dimensions": [
            1,
            1370,
            1536
          ],
          "Format/Datatype": "Float"
        },
        {
          "Name": "__myln_k_arg__bb1_24_myl1",
          "Dimensions": [
            1,
            1370,
            1536
          ],
          "Format/Datatype": "Float"
        }
      ],
      "Outputs": [
        {
          "Name": "/blocks_1/mlp/fc2/Add_output_0.1_25_myl1",
          "Dimensions": [
            1,
            1370,
            1536
          ],
          "Format/Datatype": "Float"
        }
      ],
      "TacticName": "__myl_DivErfAddMulMul_0xa13e1a5ba2820702b6e38bbb9fd5254b",
      "StreamId": 0,
      "Metadata": "[ONNX Layer: /blocks.1/mlp/act/Mul_1]\u001f[ONNX Layer: /blocks.1/mlp/act/Mul]\u001f[ONNX Layer: /blocks.1/mlp/act/Add]\u001f[ONNX Layer: /blocks.1/mlp/act/Div]\u001f[ONNX Layer: /blocks.1/mlp/act/Erf]"
    },
    {
      "Name": "/blocks_1/mlp/fc2/MatMul_myl1_20",
      "LayerType": "gemm",
      "Inputs": [
        {
          "Name": "/blocks_1/mlp/fc2/Add_output_0.1_25_myl1",
          "Dimensions": [
            1,
            1370,
            1536
          ],
          "Format/Datatype": "Float"
        }
      ],
      "Outputs": [
        {
          "Name": "__myln_k_arg__bb1_26_myl1",
          "Dimensions": [
            1,
            1370,
            384
          ],
          "Format/Datatype": "Float"
        }
      ],
      "TacticName": "sm86_xmma_gemm_f32f32_tf32f32_f32_tn_n_tilesize64x64x64_stage3_warpsize2x2x1_tensor16x8x8",
      "StreamId": 0,
      "Metadata": "[ONNX Layer: /blocks.1/mlp/fc2/MatMul]\u001f[ONNX Layer: /blocks.1/mlp/fc2/Add]"
    },
    {
      "Name": "__myl_MulAddMeanSubMulMeanAddSqrtDivMulMulAdd_myl1_21",
      "LayerType": "kgen",
      "Inputs": [
        {
          "Name": "__myln_k_arg__bb1_22_myl1",
          "Dimensions": [
            1,
            1370,
            384
          ],
          "Format/Datatype": "Float"
        },
        {
          "Name": "__myln_k_arg__bb1_26_myl1",
          "Dimensions": [
            1,
            1370,
            384
          ],
          "Format/Datatype": "Float"
        }
      ],
      "Outputs": [
        {
          "Name": "__mye57878_28_myl1",
          "Dimensions": [
            1,
            1370,
            384
          ],
          "Format/Datatype": "Float"
        },
        {
          "Name": "__myln_k_arg__bb1_27_myl1",
          "Dimensions": [
            1,
            1370,
            384
          ],
          "Format/Datatype": "Float"
        }
      ],
      "TacticName": "__myl_MulAddMeanSubMulMeanAddSqrtDivMulMulAdd_0x1468acd29c53e73f8b9006fcdc1f72ab",
      "StreamId": 0,
      "Metadata": "[ONNX Layer: /blocks.1/ls2/Mul]\u001f[ONNX Layer: /blocks.2/norm1/ReduceMean_1]\u001f[ONNX Layer: /blocks.2/norm1/Sub]\u001f[ONNX Layer: /blocks.2/norm1/Pow]\u001f[ONNX Layer: /blocks.2/norm1/ReduceMean]\u001f[ONNX Layer: /blocks.1/Add_1]\u001f[ONNX Layer: /blocks.2/norm1/Div]\u001f[ONNX Layer: /blocks.2/norm1/Add_1]\u001f[ONNX Layer: /blocks.2/norm1/Mul]\u001f[ONNX Layer: /blocks.2/norm1/Sqrt]\u001f[ONNX Layer: /blocks.2/norm1/Add]"
    },
    {
      "Name": "__mye55710+__mye55698+__mye55686_myl1_22",
      "LayerType": "gemm",
      "Inputs": [
        {
          "Name": "__mye57878_28_myl1",
          "Dimensions": [
            1,
            1370,
            384
          ],
          "Format/Datatype": "Float"
        }
      ],
      "Outputs": [
        {
          "Name": "__mye57878_myl1",
          "Dimensions": [
            3,
            1370,
            384
          ],
          "Format/Datatype": "Float"
        }
      ],
      "TacticName": "sm80_xmma_gemm_f32f32_tf32f32_f32_nn_n_tilesize64x128x16_stage4_warpsize2x2x1_tensor16x8x8",
      "StreamId": 0,
      "Metadata": "[ONNX Layer: /blocks.2/attn/qkv/MatMul]\u001f[ONNX Layer: /blocks.2/attn/qkv/Add]"
    },
    {
      "Name": "/blocks_2/attn/MatMul_myl1_23",
      "LayerType": "gemm",
      "Inputs": [
        {
          "Name": "__mye57878_myl1",
          "Dimensions": [
            6,
            1370,
            64
          ],
          "Format/Datatype": "Float"
        },
        {
          "Name": "__mye57878_myl1",
          "Dimensions": [
            6,
            64,
            1370
          ],
          "Format/Datatype": "Float"
        }
      ],
      "Outputs": [
        {
          "Name": "__mye54129_myl1",
          "Dimensions": [
            6,
            1370,
            1370
          ],
          "Format/Datatype": "Float"
        }
      ],
      "TacticName": "sm80_xmma_gemm_f32f32_tf32f32_f32_tn_n_tilesize64x128x16_stage4_warpsize2x2x1_tensor16x8x8_aligna4_alignc4",
      "StreamId": 0,
      "Metadata": "[ONNX Layer: /blocks.2/attn/MatMul]\u001f[ONNX Layer: /blocks.2/attn/Mul]"
    },
    {
      "Name": "__myl_MaxrSubExpSumDivMul_myl1_24",
      "LayerType": "kgen",
      "Inputs": [
        {
          "Name": "__mye54129_myl1",
          "Dimensions": [
            8220,
            1370
          ],
          "Format/Datatype": "Float"
        },
        {
          "Name": "__mye54129_myl1",
          "Dimensions": [
            8220,
            1370
          ],
          "Format/Datatype": "Float"
        }
      ],
      "Outputs": [
        {
          "Name": "/blocks_2/attn/Softmax_output.1_myl1",
          "Dimensions": [
            8220,
            1370
          ],
          "Format/Datatype": "Float"
        }
      ],
      "TacticName": "__myl_MaxrSubExpSumDivMul_0xe2034576008d721e860d6057ab737a9a",
      "StreamId": 0,
      "Metadata": "[ONNX Layer: /blocks.2/attn/Softmax]"
    },
    {
      "Name": "/blocks_2/attn/MatMul_1_myl1_25",
      "LayerType": "gemm",
      "Inputs": [
        {
          "Name": "/blocks_2/attn/Softmax_output.1_myl1",
          "Dimensions": [
            6,
            1370,
            1370
          ],
          "Format/Datatype": "Float"
        },
        {
          "Name": "__mye57878_myl1",
          "Dimensions": [
            6,
            1370,
            64
          ],
          "Format/Datatype": "Float"
        }
      ],
      "Outputs": [
        {
          "Name": "__mye54150_myl1",
          "Dimensions": [
            6,
            1370,
            64
          ],
          "Format/Datatype": "Float"
        }
      ],
      "TacticName": "sm80_xmma_gemm_f32f32_f32f32_f32_nn_n_tilesize64x64x8_stage3_warpsize1x4x1_ffma_aligna4_alignc4",
      "StreamId": 0,
      "Metadata": "[ONNX Layer: /blocks.2/attn/MatMul_1]"
    },
    {
      "Name": "/blocks_2/attn/proj/MatMul_myl1_26",
      "LayerType": "gemm",
      "Inputs": [
        {
          "Name": "__mye54150_myl1",
          "Dimensions": [
            1,
            1370,
            384
          ],
          "Format/Datatype": "Float"
        }
      ],
      "Outputs": [
        {
          "Name": "__myln_k_arg__bb1_33_myl1",
          "Dimensions": [
            1,
            1370,
            384
          ],
          "Format/Datatype": "Float"
        }
      ],
      "TacticName": "sm86_xmma_gemm_f32f32_tf32f32_f32_tn_n_tilesize64x64x64_stage3_warpsize2x2x1_tensor16x8x8",
      "StreamId": 0,
      "Metadata": "[ONNX Layer: /blocks.2/attn/proj/MatMul]\u001f[ONNX Layer: /blocks.2/attn/proj/Add]"
    },
    {
      "Name": "__myl_MulAddMeanSubMulMeanAddSqrtDivMulMulAdd_myl1_27",
      "LayerType": "kgen",
      "Inputs": [
        {
          "Name": "__myln_k_arg__bb1_27_myl1",
          "Dimensions": [
            1,
            1370,
            384
          ],
          "Format/Datatype": "Float"
        },
        {
          "Name": "__myln_k_arg__bb1_33_myl1",
          "Dimensions": [
            1,
            1370,
            384
          ],
          "Format/Datatype": "Float"
        }
      ],
      "Outputs": [
        {
          "Name": "/blocks_2/mlp/fc1/Add_output_0.1_35_myl1",
          "Dimensions": [
            1,
            1370,
            384
          ],
          "Format/Datatype": "Float"
        },
        {
          "Name": "__myln_k_arg__bb1_34_myl1",
          "Dimensions": [
            1,
            1370,
            384
          ],
          "Format/Datatype": "Float"
        }
      ],
      "TacticName": "__myl_MulAddMeanSubMulMeanAddSqrtDivMulMulAdd_0x1468acd29c53e73f8b9006fcdc1f72ab",
      "StreamId": 0,
      "Metadata": "[ONNX Layer: /blocks.2/ls1/Mul]\u001f[ONNX Layer: /blocks.2/norm2/ReduceMean_1]\u001f[ONNX Layer: /blocks.2/norm2/Sub]\u001f[ONNX Layer: /blocks.2/norm2/Pow]\u001f[ONNX Layer: /blocks.2/norm2/ReduceMean]\u001f[ONNX Layer: /blocks.2/Add]\u001f[ONNX Layer: /blocks.2/norm2/Div]\u001f[ONNX Layer: /blocks.2/norm2/Add_1]\u001f[ONNX Layer: /blocks.2/norm2/Mul]\u001f[ONNX Layer: /blocks.2/norm2/Sqrt]\u001f[ONNX Layer: /blocks.2/norm2/Add]"
    },
    {
      "Name": "/blocks_2/mlp/fc1/MatMul_myl1_28",
      "LayerType": "gemm",
      "Inputs": [
        {
          "Name": "/blocks_2/mlp/fc1/Add_output_0.1_35_myl1",
          "Dimensions": [
            1,
            1370,
            384
          ],
          "Format/Datatype": "Float"
        }
      ],
      "Outputs": [
        {
          "Name": "__myln_k_arg__bb1_36_myl1",
          "Dimensions": [
            1,
            1370,
            1536
          ],
          "Format/Datatype": "Float"
        }
      ],
      "TacticName": "sm80_xmma_gemm_f32f32_tf32f32_f32_nn_n_tilesize64x128x16_stage4_warpsize2x2x1_tensor16x8x8",
      "StreamId": 0,
      "Metadata": "[ONNX Layer: /blocks.2/mlp/fc1/MatMul]\u001f[ONNX Layer: /blocks.2/mlp/fc1/Add]"
    },
    {
      "Name": "__myl_DivErfAddMulMul_myl1_29",
      "LayerType": "kgen",
      "Inputs": [
        {
          "Name": "__myln_k_arg__bb1_36_myl1",
          "Dimensions": [
            1,
            1370,
            1536
          ],
          "Format/Datatype": "Float"
        },
        {
          "Name": "__myln_k_arg__bb1_36_myl1",
          "Dimensions": [
            1,
            1370,
            1536
          ],
          "Format/Datatype": "Float"
        }
      ],
      "Outputs": [
        {
          "Name": "/blocks_2/mlp/fc2/Add_output_0.1_37_myl1",
          "Dimensions": [
            1,
            1370,
            1536
          ],
          "Format/Datatype": "Float"
        }
      ],
      "TacticName": "__myl_DivErfAddMulMul_0xa13e1a5ba2820702b6e38bbb9fd5254b",
      "StreamId": 0,
      "Metadata": "[ONNX Layer: /blocks.2/mlp/act/Mul_1]\u001f[ONNX Layer: /blocks.2/mlp/act/Mul]\u001f[ONNX Layer: /blocks.2/mlp/act/Add]\u001f[ONNX Layer: /blocks.2/mlp/act/Div]\u001f[ONNX Layer: /blocks.2/mlp/act/Erf]"
    },
    {
      "Name": "/blocks_2/mlp/fc2/MatMul_myl1_30",
      "LayerType": "gemm",
      "Inputs": [
        {
          "Name": "/blocks_2/mlp/fc2/Add_output_0.1_37_myl1",
          "Dimensions": [
            1,
            1370,
            1536
          ],
          "Format/Datatype": "Float"
        }
      ],
      "Outputs": [
        {
          "Name": "__myln_k_arg__bb1_38_myl1",
          "Dimensions": [
            1,
            1370,
            384
          ],
          "Format/Datatype": "Float"
        }
      ],
      "TacticName": "sm86_xmma_gemm_f32f32_tf32f32_f32_tn_n_tilesize64x64x64_stage3_warpsize2x2x1_tensor16x8x8",
      "StreamId": 0,
      "Metadata": "[ONNX Layer: /blocks.2/mlp/fc2/MatMul]\u001f[ONNX Layer: /blocks.2/mlp/fc2/Add]"
    },
    {
      "Name": "__myl_MulAddMeanSubMulMean_myl1_31",
      "LayerType": "kgen",
      "Inputs": [
        {
          "Name": "__myln_k_arg__bb1_34_myl1",
          "Dimensions": [
            1,
            1370,
            384
          ],
          "Format/Datatype": "Float"
        },
        {
          "Name": "__myln_k_arg__bb1_38_myl1",
          "Dimensions": [
            1,
            1370,
            384
          ],
          "Format/Datatype": "Float"
        }
      ],
      "Outputs": [
        {
          "Name": "__myln_k_arg__bb1_41_myl1",
          "Dimensions": [
            1,
            1370,
            384
          ],
          "Format/Datatype": "Float"
        },
        {
          "Name": "__myln_k_arg__bb1_40_myl1",
          "Dimensions": [
            1,
            1370,
            384
          ],
          "Format/Datatype": "Float"
        },
        {
          "Name": "__myln_k_arg__bb1_39_myl1",
          "Dimensions": [
            1,
            1370,
            1
          ],
          "Format/Datatype": "Float"
        }
      ],
      "TacticName": "__myl_MulAddMeanSubMulMean_0xb2899c7617a011ab73681d0be2e04fc9",
      "StreamId": 0,
      "Metadata": "[ONNX Layer: /blocks.2/ls2/Mul]\u001f[ONNX Layer: /norm/ReduceMean_1]\u001f[ONNX Layer: /norm/Sub]\u001f[ONNX Layer: /norm/Pow]\u001f[ONNX Layer: /norm/ReduceMean]\u001f[ONNX Layer: /blocks.2/Add_1]"
    },
    {
      "Name": "__myl_AddSqrtDivMulMulMulAddSlicAdd_myl1_32",
      "LayerType": "kgen",
      "Inputs": [
        {
          "Name": "__myln_k_arg__bb1_40_myl1",
          "Dimensions": [
            1,
            1370,
            384
          ],
          "Format/Datatype": "Float"
        },
        {
          "Name": "__myln_k_arg__bb1_39_myl1",
          "Dimensions": [
            1,
            1370,
            1
          ],
          "Format/Datatype": "Float"
        }
      ],
      "Outputs": [
        {
          "Name": "__mye57861_43_myl1",
          "Dimensions": [
            1,
            1370,
            384
          ],
          "Format/Datatype": "Float"
        },
        {
          "Name": "__myln_k_arg__bb1_42_myl1",
          "Dimensions": [
            1,
            1369,
            384
          ],
          "Format/Datatype": "Float"
        }
      ],
      "TacticName": "__myl_AddSqrtDivMulMulMulAddSlicAdd_0x38e9b5886fccd9a1340efcb04317f2f3",
      "StreamId": 0,
      "Metadata": "[ONNX Layer: /norm/Add]\u001f[ONNX Layer: /norm/Sqrt]\u001f[ONNX Layer: /norm/Div]\u001f[ONNX Layer: /Slice]\u001f[ONNX Layer: /norm/Add_1]\u001f[ONNX Layer: /norm/Mul]\u001f[ONNX Layer: /blocks.3/norm1/Add_1]\u001f[ONNX Layer: /blocks.3/norm1/Mul]"
    },
    {
      "Name": "__myl_Tran_myl1_33",
      "LayerType": "kgen",
      "Inputs": [
        {
          "Name": "__myln_k_arg__bb1_42_myl1",
          "Dimensions": [
            1,
            1369,
            384
          ],
          "Format/Datatype": "Float"
        }
      ],
      "Outputs": [
        {
          "Name": "/depth_head/Reshape_output_0",
          "Dimensions": [
            1,
            384,
            1369
          ],
          "Format/Datatype": "Float"
        }
      ],
      "TacticName": "__myl_Tran_0xdcd1d5577a1f1b1cfd2c4babe6cbe7ad",
      "StreamId": 0,
      "Metadata": "[ONNX Layer: /depth_head/Transpose]\u001e[ONNX Layer: /depth_head/Reshape]"
    },
    {
      "Name": "__mye55825+__mye55813+__mye55801_myl1_34",
      "LayerType": "gemm",
      "Inputs": [
        {
          "Name": "__mye57861_43_myl1",
          "Dimensions": [
            1,
            1370,
            384
          ],
          "Format/Datatype": "Float"
        }
      ],
      "Outputs": [
        {
          "Name": "__mye57861_myl1",
          "Dimensions": [
            3,
            1370,
            384
          ],
          "Format/Datatype": "Float"
        }
      ],
      "TacticName": "sm80_xmma_gemm_f32f32_tf32f32_f32_nn_n_tilesize64x128x16_stage4_warpsize2x2x1_tensor16x8x8",
      "StreamId": 0,
      "Metadata": "[ONNX Layer: /blocks.3/attn/qkv/MatMul]\u001f[ONNX Layer: /blocks.3/attn/qkv/Add]"
    },
    {
      "Name": "/blocks_3/attn/MatMul_myl1_35",
      "LayerType": "gemm",
      "Inputs": [
        {
          "Name": "__mye57861_myl1",
          "Dimensions": [
            6,
            1370,
            64
          ],
          "Format/Datatype": "Float"
        },
        {
          "Name": "__mye57861_myl1",
          "Dimensions": [
            6,
            64,
            1370
          ],
          "Format/Datatype": "Float"
        }
      ],
      "Outputs": [
        {
          "Name": "__mye54215_myl1",
          "Dimensions": [
            6,
            1370,
            1370
          ],
          "Format/Datatype": "Float"
        }
      ],
      "TacticName": "sm80_xmma_gemm_f32f32_tf32f32_f32_tn_n_tilesize64x128x16_stage4_warpsize2x2x1_tensor16x8x8_aligna4_alignc4",
      "StreamId": 0,
      "Metadata": "[ONNX Layer: /blocks.3/attn/MatMul]\u001f[ONNX Layer: /blocks.3/attn/Mul]"
    },
    {
      "Name": "__myl_MaxrSubExpSumDivMul_myl1_36",
      "LayerType": "kgen",
      "Inputs": [
        {
          "Name": "__mye54215_myl1",
          "Dimensions": [
            8220,
            1370
          ],
          "Format/Datatype": "Float"
        },
        {
          "Name": "__mye54215_myl1",
          "Dimensions": [
            8220,
            1370
          ],
          "Format/Datatype": "Float"
        }
      ],
      "Outputs": [
        {
          "Name": "/blocks_3/attn/Softmax_output.1_myl1",
          "Dimensions": [
            8220,
            1370
          ],
          "Format/Datatype": "Float"
        }
      ],
      "TacticName": "__myl_MaxrSubExpSumDivMul_0xe2034576008d721e860d6057ab737a9a",
      "StreamId": 0,
      "Metadata": "[ONNX Layer: /blocks.3/attn/Softmax]"
    },
    {
      "Name": "/blocks_3/attn/MatMul_1_myl1_37",
      "LayerType": "gemm",
      "Inputs": [
        {
          "Name": "/blocks_3/attn/Softmax_output.1_myl1",
          "Dimensions": [
            6,
            1370,
            1370
          ],
          "Format/Datatype": "Float"
        },
        {
          "Name": "__mye57861_myl1",
          "Dimensions": [
            6,
            1370,
            64
          ],
          "Format/Datatype": "Float"
        }
      ],
      "Outputs": [
        {
          "Name": "__mye54236_myl1",
          "Dimensions": [
            6,
            1370,
            64
          ],
          "Format/Datatype": "Float"
        }
      ],
      "TacticName": "sm80_xmma_gemm_f32f32_f32f32_f32_nn_n_tilesize64x64x8_stage3_warpsize1x4x1_ffma_aligna4_alignc4",
      "StreamId": 0,
      "Metadata": "[ONNX Layer: /blocks.3/attn/MatMul_1]"
    },
    {
      "Name": "/blocks_3/attn/proj/MatMul_myl1_38",
      "LayerType": "gemm",
      "Inputs": [
        {
          "Name": "__mye54236_myl1",
          "Dimensions": [
            1,
            1370,
            384
          ],
          "Format/Datatype": "Float"
        }
      ],
      "Outputs": [
        {
          "Name": "__myln_k_arg__bb1_49_myl1",
          "Dimensions": [
            1,
            1370,
            384
          ],
          "Format/Datatype": "Float"
        }
      ],
      "TacticName": "sm86_xmma_gemm_f32f32_tf32f32_f32_tn_n_tilesize64x64x64_stage3_warpsize2x2x1_tensor16x8x8",
      "StreamId": 0,
      "Metadata": "[ONNX Layer: /blocks.3/attn/proj/MatMul]\u001f[ONNX Layer: /blocks.3/attn/proj/Add]"
    },
    {
      "Name": "__myl_MulAddMeanSubMulMeanAddSqrtDivMulMulAdd_myl1_39",
      "LayerType": "kgen",
      "Inputs": [
        {
          "Name": "__myln_k_arg__bb1_41_myl1",
          "Dimensions": [
            1,
            1370,
            384
          ],
          "Format/Datatype": "Float"
        },
        {
          "Name": "__myln_k_arg__bb1_49_myl1",
          "Dimensions": [
            1,
            1370,
            384
          ],
          "Format/Datatype": "Float"
        }
      ],
      "Outputs": [
        {
          "Name": "/blocks_3/mlp/fc1/Add_output_0.1_51_myl1",
          "Dimensions": [
            1,
            1370,
            384
          ],
          "Format/Datatype": "Float"
        },
        {
          "Name": "__myln_k_arg__bb1_50_myl1",
          "Dimensions": [
            1,
            1370,
            384
          ],
          "Format/Datatype": "Float"
        }
      ],
      "TacticName": "__myl_MulAddMeanSubMulMeanAddSqrtDivMulMulAdd_0x1468acd29c53e73f8b9006fcdc1f72ab",
      "StreamId": 0,
      "Metadata": "[ONNX Layer: /blocks.3/ls1/Mul]\u001f[ONNX Layer: /blocks.3/norm2/ReduceMean_1]\u001f[ONNX Layer: /blocks.3/norm2/Sub]\u001f[ONNX Layer: /blocks.3/norm2/Pow]\u001f[ONNX Layer: /blocks.3/norm2/ReduceMean]\u001f[ONNX Layer: /blocks.3/Add]\u001f[ONNX Layer: /blocks.3/norm2/Div]\u001f[ONNX Layer: /blocks.3/norm2/Add_1]\u001f[ONNX Layer: /blocks.3/norm2/Mul]\u001f[ONNX Layer: /blocks.3/norm2/Sqrt]\u001f[ONNX Layer: /blocks.3/norm2/Add]"
    },
    {
      "Name": "/blocks_3/mlp/fc1/MatMul_myl1_40",
      "LayerType": "gemm",
      "Inputs": [
        {
          "Name": "/blocks_3/mlp/fc1/Add_output_0.1_51_myl1",
          "Dimensions": [
            1,
            1370,
            384
          ],
          "Format/Datatype": "Float"
        }
      ],
      "Outputs": [
        {
          "Name": "__myln_k_arg__bb1_52_myl1",
          "Dimensions": [
            1,
            1370,
            1536
          ],
          "Format/Datatype": "Float"
        }
      ],
      "TacticName": "sm80_xmma_gemm_f32f32_tf32f32_f32_nn_n_tilesize64x128x16_stage4_warpsize2x2x1_tensor16x8x8",
      "StreamId": 0,
      "Metadata": "[ONNX Layer: /blocks.3/mlp/fc1/MatMul]\u001f[ONNX Layer: /blocks.3/mlp/fc1/Add]"
    },
    {
      "Name": "__myl_DivErfAddMulMul_myl1_41",
      "LayerType": "kgen",
      "Inputs": [
        {
          "Name": "__myln_k_arg__bb1_52_myl1",
          "Dimensions": [
            1,
            1370,
            1536
          ],
          "Format/Datatype": "Float"
        },
        {
          "Name": "__myln_k_arg__bb1_52_myl1",
          "Dimensions": [
            1,
            1370,
            1536
          ],
          "Format/Datatype": "Float"
        }
      ],
      "Outputs": [
        {
          "Name": "/blocks_3/mlp/fc2/Add_output_0.1_53_myl1",
          "Dimensions": [
            1,
            1370,
            1536
          ],
          "Format/Datatype": "Float"
        }
      ],
      "TacticName": "__myl_DivErfAddMulMul_0xa13e1a5ba2820702b6e38bbb9fd5254b",
      "StreamId": 0,
      "Metadata": "[ONNX Layer: /blocks.3/mlp/act/Mul_1]\u001f[ONNX Layer: /blocks.3/mlp/act/Mul]\u001f[ONNX Layer: /blocks.3/mlp/act/Add]\u001f[ONNX Layer: /blocks.3/mlp/act/Div]\u001f[ONNX Layer: /blocks.3/mlp/act/Erf]"
    },
    {
      "Name": "/blocks_3/mlp/fc2/MatMul_myl1_42",
      "LayerType": "gemm",
      "Inputs": [
        {
          "Name": "/blocks_3/mlp/fc2/Add_output_0.1_53_myl1",
          "Dimensions": [
            1,
            1370,
            1536
          ],
          "Format/Datatype": "Float"
        }
      ],
      "Outputs": [
        {
          "Name": "__myln_k_arg__bb1_54_myl1",
          "Dimensions": [
            1,
            1370,
            384
          ],
          "Format/Datatype": "Float"
        }
      ],
      "TacticName": "sm86_xmma_gemm_f32f32_tf32f32_f32_tn_n_tilesize64x64x64_stage3_warpsize2x2x1_tensor16x8x8",
      "StreamId": 0,
      "Metadata": "[ONNX Layer: /blocks.3/mlp/fc2/MatMul]\u001f[ONNX Layer: /blocks.3/mlp/fc2/Add]"
    },
    {
      "Name": "__myl_MulAddMeanSubMulMeanAddSqrtDivMulMulAdd_myl1_43",
      "LayerType": "kgen",
      "Inputs": [
        {
          "Name": "__myln_k_arg__bb1_50_myl1",
          "Dimensions": [
            1,
            1370,
            384
          ],
          "Format/Datatype": "Float"
        },
        {
          "Name": "__myln_k_arg__bb1_54_myl1",
          "Dimensions": [
            1,
            1370,
            384
          ],
          "Format/Datatype": "Float"
        }
      ],
      "Outputs": [
        {
          "Name": "__mye57844_56_myl1",
          "Dimensions": [
            1,
            1370,
            384
          ],
          "Format/Datatype": "Float"
        },
        {
          "Name": "__myln_k_arg__bb1_55_myl1",
          "Dimensions": [
            1,
            1370,
            384
          ],
          "Format/Datatype": "Float"
        }
      ],
      "TacticName": "__myl_MulAddMeanSubMulMeanAddSqrtDivMulMulAdd_0x1468acd29c53e73f8b9006fcdc1f72ab",
      "StreamId": 0,
      "Metadata": "[ONNX Layer: /blocks.3/ls2/Mul]\u001f[ONNX Layer: /blocks.4/norm1/ReduceMean_1]\u001f[ONNX Layer: /blocks.4/norm1/Sub]\u001f[ONNX Layer: /blocks.4/norm1/Pow]\u001f[ONNX Layer: /blocks.4/norm1/ReduceMean]\u001f[ONNX Layer: /blocks.3/Add_1]\u001f[ONNX Layer: /blocks.4/norm1/Div]\u001f[ONNX Layer: /blocks.4/norm1/Add_1]\u001f[ONNX Layer: /blocks.4/norm1/Mul]\u001f[ONNX Layer: /blocks.4/norm1/Sqrt]\u001f[ONNX Layer: /blocks.4/norm1/Add]"
    },
    {
      "Name": "__mye55940+__mye55928+__mye55916_myl1_44",
      "LayerType": "gemm",
      "Inputs": [
        {
          "Name": "__mye57844_56_myl1",
          "Dimensions": [
            1,
            1370,
            384
          ],
          "Format/Datatype": "Float"
        }
      ],
      "Outputs": [
        {
          "Name": "__mye57844_myl1",
          "Dimensions": [
            3,
            1370,
            384
          ],
          "Format/Datatype": "Float"
        }
      ],
      "TacticName": "sm80_xmma_gemm_f32f32_tf32f32_f32_nn_n_tilesize64x128x16_stage4_warpsize2x2x1_tensor16x8x8",
      "StreamId": 0,
      "Metadata": "[ONNX Layer: /blocks.4/attn/qkv/MatMul]\u001f[ONNX Layer: /blocks.4/attn/qkv/Add]"
    },
    {
      "Name": "/blocks_4/attn/MatMul_myl1_45",
      "LayerType": "gemm",
      "Inputs": [
        {
          "Name": "__mye57844_myl1",
          "Dimensions": [
            6,
            1370,
            64
          ],
          "Format/Datatype": "Float"
        },
        {
          "Name": "__mye57844_myl1",
          "Dimensions": [
            6,
            64,
            1370
          ],
          "Format/Datatype": "Float"
        }
      ],
      "Outputs": [
        {
          "Name": "__mye54301_myl1",
          "Dimensions": [
            6,
            1370,
            1370
          ],
          "Format/Datatype": "Float"
        }
      ],
      "TacticName": "sm80_xmma_gemm_f32f32_tf32f32_f32_tn_n_tilesize64x128x16_stage4_warpsize2x2x1_tensor16x8x8_aligna4_alignc4",
      "StreamId": 0,
      "Metadata": "[ONNX Layer: /blocks.4/attn/MatMul]\u001f[ONNX Layer: /blocks.4/attn/Mul]"
    },
    {
      "Name": "__myl_MaxrSubExpSumDivMul_myl1_46",
      "LayerType": "kgen",
      "Inputs": [
        {
          "Name": "__mye54301_myl1",
          "Dimensions": [
            8220,
            1370
          ],
          "Format/Datatype": "Float"
        },
        {
          "Name": "__mye54301_myl1",
          "Dimensions": [
            8220,
            1370
          ],
          "Format/Datatype": "Float"
        }
      ],
      "Outputs": [
        {
          "Name": "/blocks_4/attn/Softmax_output.1_myl1",
          "Dimensions": [
            8220,
            1370
          ],
          "Format/Datatype": "Float"
        }
      ],
      "TacticName": "__myl_MaxrSubExpSumDivMul_0xe2034576008d721e860d6057ab737a9a",
      "StreamId": 0,
      "Metadata": "[ONNX Layer: /blocks.4/attn/Softmax]"
    },
    {
      "Name": "/blocks_4/attn/MatMul_1_myl1_47",
      "LayerType": "gemm",
      "Inputs": [
        {
          "Name": "/blocks_4/attn/Softmax_output.1_myl1",
          "Dimensions": [
            6,
            1370,
            1370
          ],
          "Format/Datatype": "Float"
        },
        {
          "Name": "__mye57844_myl1",
          "Dimensions": [
            6,
            1370,
            64
          ],
          "Format/Datatype": "Float"
        }
      ],
      "Outputs": [
        {
          "Name": "__mye54322_myl1",
          "Dimensions": [
            6,
            1370,
            64
          ],
          "Format/Datatype": "Float"
        }
      ],
      "TacticName": "sm80_xmma_gemm_f32f32_f32f32_f32_nn_n_tilesize64x64x8_stage3_warpsize1x4x1_ffma_aligna4_alignc4",
      "StreamId": 0,
      "Metadata": "[ONNX Layer: /blocks.4/attn/MatMul_1]"
    },
    {
      "Name": "/blocks_4/attn/proj/MatMul_myl1_48",
      "LayerType": "gemm",
      "Inputs": [
        {
          "Name": "__mye54322_myl1",
          "Dimensions": [
            1,
            1370,
            384
          ],
          "Format/Datatype": "Float"
        }
      ],
      "Outputs": [
        {
          "Name": "__myln_k_arg__bb1_61_myl1",
          "Dimensions": [
            1,
            1370,
            384
          ],
          "Format/Datatype": "Float"
        }
      ],
      "TacticName": "sm86_xmma_gemm_f32f32_tf32f32_f32_tn_n_tilesize64x64x64_stage3_warpsize2x2x1_tensor16x8x8",
      "StreamId": 0,
      "Metadata": "[ONNX Layer: /blocks.4/attn/proj/MatMul]\u001f[ONNX Layer: /blocks.4/attn/proj/Add]"
    },
    {
      "Name": "__myl_MulAddMeanSubMulMeanAddSqrtDivMulMulAdd_myl1_49",
      "LayerType": "kgen",
      "Inputs": [
        {
          "Name": "__myln_k_arg__bb1_55_myl1",
          "Dimensions": [
            1,
            1370,
            384
          ],
          "Format/Datatype": "Float"
        },
        {
          "Name": "__myln_k_arg__bb1_61_myl1",
          "Dimensions": [
            1,
            1370,
            384
          ],
          "Format/Datatype": "Float"
        }
      ],
      "Outputs": [
        {
          "Name": "/blocks_4/mlp/fc1/Add_output_0.1_63_myl1",
          "Dimensions": [
            1,
            1370,
            384
          ],
          "Format/Datatype": "Float"
        },
        {
          "Name": "__myln_k_arg__bb1_62_myl1",
          "Dimensions": [
            1,
            1370,
            384
          ],
          "Format/Datatype": "Float"
        }
      ],
      "TacticName": "__myl_MulAddMeanSubMulMeanAddSqrtDivMulMulAdd_0x1468acd29c53e73f8b9006fcdc1f72ab",
      "StreamId": 0,
      "Metadata": "[ONNX Layer: /blocks.4/ls1/Mul]\u001f[ONNX Layer: /blocks.4/norm2/ReduceMean_1]\u001f[ONNX Layer: /blocks.4/norm2/Sub]\u001f[ONNX Layer: /blocks.4/norm2/Pow]\u001f[ONNX Layer: /blocks.4/norm2/ReduceMean]\u001f[ONNX Layer: /blocks.4/Add]\u001f[ONNX Layer: /blocks.4/norm2/Div]\u001f[ONNX Layer: /blocks.4/norm2/Add_1]\u001f[ONNX Layer: /blocks.4/norm2/Mul]\u001f[ONNX Layer: /blocks.4/norm2/Sqrt]\u001f[ONNX Layer: /blocks.4/norm2/Add]"
    },
    {
      "Name": "/blocks_4/mlp/fc1/MatMul_myl1_50",
      "LayerType": "gemm",
      "Inputs": [
        {
          "Name": "/blocks_4/mlp/fc1/Add_output_0.1_63_myl1",
          "Dimensions": [
            1,
            1370,
            384
          ],
          "Format/Datatype": "Float"
        }
      ],
      "Outputs": [
        {
          "Name": "__myln_k_arg__bb1_64_myl1",
          "Dimensions": [
            1,
            1370,
            1536
          ],
          "Format/Datatype": "Float"
        }
      ],
      "TacticName": "sm80_xmma_gemm_f32f32_tf32f32_f32_nn_n_tilesize64x128x16_stage4_warpsize2x2x1_tensor16x8x8",
      "StreamId": 0,
      "Metadata": "[ONNX Layer: /blocks.4/mlp/fc1/MatMul]\u001f[ONNX Layer: /blocks.4/mlp/fc1/Add]"
    },
    {
      "Name": "__myl_DivErfAddMulMul_myl1_51",
      "LayerType": "kgen",
      "Inputs": [
        {
          "Name": "__myln_k_arg__bb1_64_myl1",
          "Dimensions": [
            1,
            1370,
            1536
          ],
          "Format/Datatype": "Float"
        },
        {
          "Name": "__myln_k_arg__bb1_64_myl1",
          "Dimensions": [
            1,
            1370,
            1536
          ],
          "Format/Datatype": "Float"
        }
      ],
      "Outputs": [
        {
          "Name": "/blocks_4/mlp/fc2/Add_output_0.1_65_myl1",
          "Dimensions": [
            1,
            1370,
            1536
          ],
          "Format/Datatype": "Float"
        }
      ],
      "TacticName": "__myl_DivErfAddMulMul_0xa13e1a5ba2820702b6e38bbb9fd5254b",
      "StreamId": 0,
      "Metadata": "[ONNX Layer: /blocks.4/mlp/act/Mul_1]\u001f[ONNX Layer: /blocks.4/mlp/act/Mul]\u001f[ONNX Layer: /blocks.4/mlp/act/Add]\u001f[ONNX Layer: /blocks.4/mlp/act/Div]\u001f[ONNX Layer: /blocks.4/mlp/act/Erf]"
    },
    {
      "Name": "/blocks_4/mlp/fc2/MatMul_myl1_52",
      "LayerType": "gemm",
      "Inputs": [
        {
          "Name": "/blocks_4/mlp/fc2/Add_output_0.1_65_myl1",
          "Dimensions": [
            1,
            1370,
            1536
          ],
          "Format/Datatype": "Float"
        }
      ],
      "Outputs": [
        {
          "Name": "__myln_k_arg__bb1_66_myl1",
          "Dimensions": [
            1,
            1370,
            384
          ],
          "Format/Datatype": "Float"
        }
      ],
      "TacticName": "sm86_xmma_gemm_f32f32_tf32f32_f32_tn_n_tilesize64x64x64_stage3_warpsize2x2x1_tensor16x8x8",
      "StreamId": 0,
      "Metadata": "[ONNX Layer: /blocks.4/mlp/fc2/MatMul]\u001f[ONNX Layer: /blocks.4/mlp/fc2/Add]"
    },
    {
      "Name": "__myl_MulAddMeanSubMulMeanAddSqrtDivMulMulAdd_myl1_53",
      "LayerType": "kgen",
      "Inputs": [
        {
          "Name": "__myln_k_arg__bb1_62_myl1",
          "Dimensions": [
            1,
            1370,
            384
          ],
          "Format/Datatype": "Float"
        },
        {
          "Name": "__myln_k_arg__bb1_66_myl1",
          "Dimensions": [
            1,
            1370,
            384
          ],
          "Format/Datatype": "Float"
        }
      ],
      "Outputs": [
        {
          "Name": "__mye57827_68_myl1",
          "Dimensions": [
            1,
            1370,
            384
          ],
          "Format/Datatype": "Float"
        },
        {
          "Name": "__myln_k_arg__bb1_67_myl1",
          "Dimensions": [
            1,
            1370,
            384
          ],
          "Format/Datatype": "Float"
        }
      ],
      "TacticName": "__myl_MulAddMeanSubMulMeanAddSqrtDivMulMulAdd_0x1468acd29c53e73f8b9006fcdc1f72ab",
      "StreamId": 0,
      "Metadata": "[ONNX Layer: /blocks.4/ls2/Mul]\u001f[ONNX Layer: /blocks.5/norm1/ReduceMean_1]\u001f[ONNX Layer: /blocks.5/norm1/Sub]\u001f[ONNX Layer: /blocks.5/norm1/Pow]\u001f[ONNX Layer: /blocks.5/norm1/ReduceMean]\u001f[ONNX Layer: /blocks.4/Add_1]\u001f[ONNX Layer: /blocks.5/norm1/Div]\u001f[ONNX Layer: /blocks.5/norm1/Add_1]\u001f[ONNX Layer: /blocks.5/norm1/Mul]\u001f[ONNX Layer: /blocks.5/norm1/Sqrt]\u001f[ONNX Layer: /blocks.5/norm1/Add]"
    },
    {
      "Name": "__mye56055+__mye56043+__mye56031_myl1_54",
      "LayerType": "gemm",
      "Inputs": [
        {
          "Name": "__mye57827_68_myl1",
          "Dimensions": [
            1,
            1370,
            384
          ],
          "Format/Datatype": "Float"
        }
      ],
      "Outputs": [
        {
          "Name": "__mye57827_myl1",
          "Dimensions": [
            3,
            1370,
            384
          ],
          "Format/Datatype": "Float"
        }
      ],
      "TacticName": "sm80_xmma_gemm_f32f32_tf32f32_f32_nn_n_tilesize64x128x16_stage4_warpsize2x2x1_tensor16x8x8",
      "StreamId": 0,
      "Metadata": "[ONNX Layer: /blocks.5/attn/qkv/MatMul]\u001f[ONNX Layer: /blocks.5/attn/qkv/Add]"
    },
    {
      "Name": "/blocks_5/attn/MatMul_myl1_55",
      "LayerType": "gemm",
      "Inputs": [
        {
          "Name": "__mye57827_myl1",
          "Dimensions": [
            6,
            1370,
            64
          ],
          "Format/Datatype": "Float"
        },
        {
          "Name": "__mye57827_myl1",
          "Dimensions": [
            6,
            64,
            1370
          ],
          "Format/Datatype": "Float"
        }
      ],
      "Outputs": [
        {
          "Name": "__mye54387_myl1",
          "Dimensions": [
            6,
            1370,
            1370
          ],
          "Format/Datatype": "Float"
        }
      ],
      "TacticName": "sm80_xmma_gemm_f32f32_tf32f32_f32_tn_n_tilesize64x128x16_stage4_warpsize2x2x1_tensor16x8x8_aligna4_alignc4",
      "StreamId": 0,
      "Metadata": "[ONNX Layer: /blocks.5/attn/MatMul]\u001f[ONNX Layer: /blocks.5/attn/Mul]"
    },
    {
      "Name": "__myl_MaxrSubExpSumDivMul_myl1_56",
      "LayerType": "kgen",
      "Inputs": [
        {
          "Name": "__mye54387_myl1",
          "Dimensions": [
            8220,
            1370
          ],
          "Format/Datatype": "Float"
        },
        {
          "Name": "__mye54387_myl1",
          "Dimensions": [
            8220,
            1370
          ],
          "Format/Datatype": "Float"
        }
      ],
      "Outputs": [
        {
          "Name": "/blocks_5/attn/Softmax_output.1_myl1",
          "Dimensions": [
            8220,
            1370
          ],
          "Format/Datatype": "Float"
        }
      ],
      "TacticName": "__myl_MaxrSubExpSumDivMul_0xe2034576008d721e860d6057ab737a9a",
      "StreamId": 0,
      "Metadata": "[ONNX Layer: /blocks.5/attn/Softmax]"
    },
    {
      "Name": "/blocks_5/attn/MatMul_1_myl1_57",
      "LayerType": "gemm",
      "Inputs": [
        {
          "Name": "/blocks_5/attn/Softmax_output.1_myl1",
          "Dimensions": [
            6,
            1370,
            1370
          ],
          "Format/Datatype": "Float"
        },
        {
          "Name": "__mye57827_myl1",
          "Dimensions": [
            6,
            1370,
            64
          ],
          "Format/Datatype": "Float"
        }
      ],
      "Outputs": [
        {
          "Name": "__mye54408_myl1",
          "Dimensions": [
            6,
            1370,
            64
          ],
          "Format/Datatype": "Float"
        }
      ],
      "TacticName": "sm80_xmma_gemm_f32f32_f32f32_f32_nn_n_tilesize64x64x8_stage3_warpsize1x4x1_ffma_aligna4_alignc4",
      "StreamId": 0,
      "Metadata": "[ONNX Layer: /blocks.5/attn/MatMul_1]"
    },
    {
      "Name": "/blocks_5/attn/proj/MatMul_myl1_58",
      "LayerType": "gemm",
      "Inputs": [
        {
          "Name": "__mye54408_myl1",
          "Dimensions": [
            1,
            1370,
            384
          ],
          "Format/Datatype": "Float"
        }
      ],
      "Outputs": [
        {
          "Name": "__myln_k_arg__bb1_73_myl1",
          "Dimensions": [
            1,
            1370,
            384
          ],
          "Format/Datatype": "Float"
        }
      ],
      "TacticName": "sm86_xmma_gemm_f32f32_tf32f32_f32_tn_n_tilesize64x64x64_stage3_warpsize2x2x1_tensor16x8x8",
      "StreamId": 0,
      "Metadata": "[ONNX Layer: /blocks.5/attn/proj/MatMul]\u001f[ONNX Layer: /blocks.5/attn/proj/Add]"
    },
    {
      "Name": "__myl_MulAddMeanSubMulMeanAddSqrtDivMulMulAdd_myl1_59",
      "LayerType": "kgen",
      "Inputs": [
        {
          "Name": "__myln_k_arg__bb1_67_myl1",
          "Dimensions": [
            1,
            1370,
            384
          ],
          "Format/Datatype": "Float"
        },
        {
          "Name": "__myln_k_arg__bb1_73_myl1",
          "Dimensions": [
            1,
            1370,
            384
          ],
          "Format/Datatype": "Float"
        }
      ],
      "Outputs": [
        {
          "Name": "/blocks_5/mlp/fc1/Add_output_0.1_75_myl1",
          "Dimensions": [
            1,
            1370,
            384
          ],
          "Format/Datatype": "Float"
        },
        {
          "Name": "__myln_k_arg__bb1_74_myl1",
          "Dimensions": [
            1,
            1370,
            384
          ],
          "Format/Datatype": "Float"
        }
      ],
      "TacticName": "__myl_MulAddMeanSubMulMeanAddSqrtDivMulMulAdd_0x1468acd29c53e73f8b9006fcdc1f72ab",
      "StreamId": 0,
      "Metadata": "[ONNX Layer: /blocks.5/ls1/Mul]\u001f[ONNX Layer: /blocks.5/norm2/ReduceMean_1]\u001f[ONNX Layer: /blocks.5/norm2/Sub]\u001f[ONNX Layer: /blocks.5/norm2/Pow]\u001f[ONNX Layer: /blocks.5/norm2/ReduceMean]\u001f[ONNX Layer: /blocks.5/Add]\u001f[ONNX Layer: /blocks.5/norm2/Div]\u001f[ONNX Layer: /blocks.5/norm2/Add_1]\u001f[ONNX Layer: /blocks.5/norm2/Mul]\u001f[ONNX Layer: /blocks.5/norm2/Sqrt]\u001f[ONNX Layer: /blocks.5/norm2/Add]"
    },
    {
      "Name": "/blocks_5/mlp/fc1/MatMul_myl1_60",
      "LayerType": "gemm",
      "Inputs": [
        {
          "Name": "/blocks_5/mlp/fc1/Add_output_0.1_75_myl1",
          "Dimensions": [
            1,
            1370,
            384
          ],
          "Format/Datatype": "Float"
        }
      ],
      "Outputs": [
        {
          "Name": "__myln_k_arg__bb1_76_myl1",
          "Dimensions": [
            1,
            1370,
            1536
          ],
          "Format/Datatype": "Float"
        }
      ],
      "TacticName": "sm80_xmma_gemm_f32f32_tf32f32_f32_nn_n_tilesize64x128x16_stage4_warpsize2x2x1_tensor16x8x8",
      "StreamId": 0,
      "Metadata": "[ONNX Layer: /blocks.5/mlp/fc1/MatMul]\u001f[ONNX Layer: /blocks.5/mlp/fc1/Add]"
    },
    {
      "Name": "__myl_DivErfAddMulMul_myl1_61",
      "LayerType": "kgen",
      "Inputs": [
        {
          "Name": "__myln_k_arg__bb1_76_myl1",
          "Dimensions": [
            1,
            1370,
            1536
          ],
          "Format/Datatype": "Float"
        },
        {
          "Name": "__myln_k_arg__bb1_76_myl1",
          "Dimensions": [
            1,
            1370,
            1536
          ],
          "Format/Datatype": "Float"
        }
      ],
      "Outputs": [
        {
          "Name": "/blocks_5/mlp/fc2/Add_output_0.1_77_myl1",
          "Dimensions": [
            1,
            1370,
            1536
          ],
          "Format/Datatype": "Float"
        }
      ],
      "TacticName": "__myl_DivErfAddMulMul_0xa13e1a5ba2820702b6e38bbb9fd5254b",
      "StreamId": 0,
      "Metadata": "[ONNX Layer: /blocks.5/mlp/act/Mul_1]\u001f[ONNX Layer: /blocks.5/mlp/act/Mul]\u001f[ONNX Layer: /blocks.5/mlp/act/Add]\u001f[ONNX Layer: /blocks.5/mlp/act/Div]\u001f[ONNX Layer: /blocks.5/mlp/act/Erf]"
    },
    {
      "Name": "/blocks_5/mlp/fc2/MatMul_myl1_62",
      "LayerType": "gemm",
      "Inputs": [
        {
          "Name": "/blocks_5/mlp/fc2/Add_output_0.1_77_myl1",
          "Dimensions": [
            1,
            1370,
            1536
          ],
          "Format/Datatype": "Float"
        }
      ],
      "Outputs": [
        {
          "Name": "__myln_k_arg__bb1_78_myl1",
          "Dimensions": [
            1,
            1370,
            384
          ],
          "Format/Datatype": "Float"
        }
      ],
      "TacticName": "sm86_xmma_gemm_f32f32_tf32f32_f32_tn_n_tilesize64x64x64_stage3_warpsize2x2x1_tensor16x8x8",
      "StreamId": 0,
      "Metadata": "[ONNX Layer: /blocks.5/mlp/fc2/MatMul]\u001f[ONNX Layer: /blocks.5/mlp/fc2/Add]"
    },
    {
      "Name": "__myl_MulAddMeanSubMulMean_myl1_63",
      "LayerType": "kgen",
      "Inputs": [
        {
          "Name": "__myln_k_arg__bb1_74_myl1",
          "Dimensions": [
            1,
            1370,
            384
          ],
          "Format/Datatype": "Float"
        },
        {
          "Name": "__myln_k_arg__bb1_78_myl1",
          "Dimensions": [
            1,
            1370,
            384
          ],
          "Format/Datatype": "Float"
        }
      ],
      "Outputs": [
        {
          "Name": "__myln_k_arg__bb1_81_myl1",
          "Dimensions": [
            1,
            1370,
            384
          ],
          "Format/Datatype": "Float"
        },
        {
          "Name": "__myln_k_arg__bb1_80_myl1",
          "Dimensions": [
            1,
            1370,
            384
          ],
          "Format/Datatype": "Float"
        },
        {
          "Name": "__myln_k_arg__bb1_79_myl1",
          "Dimensions": [
            1,
            1370,
            1
          ],
          "Format/Datatype": "Float"
        }
      ],
      "TacticName": "__myl_MulAddMeanSubMulMean_0xb2899c7617a011ab73681d0be2e04fc9",
      "StreamId": 0,
      "Metadata": "[ONNX Layer: /blocks.5/ls2/Mul]\u001f[ONNX Layer: /norm_1/ReduceMean_1]\u001f[ONNX Layer: /norm_1/Sub]\u001f[ONNX Layer: /norm_1/Pow]\u001f[ONNX Layer: /norm_1/ReduceMean]\u001f[ONNX Layer: /blocks.5/Add_1]"
    },
    {
      "Name": "__myl_AddSqrtDivMulMulMulAddAddSlic_myl1_64",
      "LayerType": "kgen",
      "Inputs": [
        {
          "Name": "__myln_k_arg__bb1_80_myl1",
          "Dimensions": [
            1,
            1370,
            384
          ],
          "Format/Datatype": "Float"
        },
        {
          "Name": "__myln_k_arg__bb1_79_myl1",
          "Dimensions": [
            1,
            1370,
            1
          ],
          "Format/Datatype": "Float"
        }
      ],
      "Outputs": [
        {
          "Name": "__myln_k_arg__bb1_83_myl1",
          "Dimensions": [
            1,
            1369,
            384
          ],
          "Format/Datatype": "Float"
        },
        {
          "Name": "__myln_k_arg__bb1_82_myl1",
          "Dimensions": [
            1,
            1370,
            384
          ],
          "Format/Datatype": "Float"
        }
      ],
      "TacticName": "__myl_AddSqrtDivMulMulMulAddAddSlic_0x1b6c2520a12ee4f1fb8ddf4ea4ae8ef3",
      "StreamId": 0,
      "Metadata": "[ONNX Layer: /norm_1/Add]\u001f[ONNX Layer: /norm_1/Sqrt]\u001f[ONNX Layer: /norm_1/Div]\u001f[ONNX Layer: /blocks.6/norm1/Add_1]\u001f[ONNX Layer: /blocks.6/norm1/Mul]\u001f[ONNX Layer: /Slice_1]\u001f[ONNX Layer: /norm_1/Add_1]\u001f[ONNX Layer: /norm_1/Mul]"
    },
    {
      "Name": "__myl_Tran_myl1_65",
      "LayerType": "kgen",
      "Inputs": [
        {
          "Name": "__myln_k_arg__bb1_83_myl1",
          "Dimensions": [
            1,
            1369,
            384
          ],
          "Format/Datatype": "Float"
        }
      ],
      "Outputs": [
        {
          "Name": "/depth_head/Reshape_1_output_0",
          "Dimensions": [
            1,
            384,
            1369
          ],
          "Format/Datatype": "Float"
        }
      ],
      "TacticName": "__myl_Tran_0xdcd1d5577a1f1b1cfd2c4babe6cbe7ad",
      "StreamId": 0,
      "Metadata": "[ONNX Layer: /depth_head/Transpose_1]\u001e[ONNX Layer: /depth_head/Reshape_1]"
    },
    {
      "Name": "__mye56170+__mye56158+__mye56146_myl1_66",
      "LayerType": "gemm",
      "Inputs": [
        {
          "Name": "__myln_k_arg__bb1_82_myl1",
          "Dimensions": [
            1,
            1370,
            384
          ],
          "Format/Datatype": "Float"
        }
      ],
      "Outputs": [
        {
          "Name": "__mye57810_myl1",
          "Dimensions": [
            3,
            1370,
            384
          ],
          "Format/Datatype": "Float"
        }
      ],
      "TacticName": "sm80_xmma_gemm_f32f32_tf32f32_f32_nn_n_tilesize64x128x16_stage4_warpsize2x2x1_tensor16x8x8",
      "StreamId": 0,
      "Metadata": "[ONNX Layer: /blocks.6/attn/qkv/MatMul]\u001f[ONNX Layer: /blocks.6/attn/qkv/Add]"
    },
    {
      "Name": "/blocks_6/attn/MatMul_myl1_67",
      "LayerType": "gemm",
      "Inputs": [
        {
          "Name": "__mye57810_myl1",
          "Dimensions": [
            6,
            1370,
            64
          ],
          "Format/Datatype": "Float"
        },
        {
          "Name": "__mye57810_myl1",
          "Dimensions": [
            6,
            64,
            1370
          ],
          "Format/Datatype": "Float"
        }
      ],
      "Outputs": [
        {
          "Name": "__mye54473_myl1",
          "Dimensions": [
            6,
            1370,
            1370
          ],
          "Format/Datatype": "Float"
        }
      ],
      "TacticName": "sm80_xmma_gemm_f32f32_tf32f32_f32_tn_n_tilesize64x128x16_stage4_warpsize2x2x1_tensor16x8x8_aligna4_alignc4",
      "StreamId": 0,
      "Metadata": "[ONNX Layer: /blocks.6/attn/MatMul]\u001f[ONNX Layer: /blocks.6/attn/Mul]"
    },
    {
      "Name": "__myl_MaxrSubExpSumDivMul_myl1_68",
      "LayerType": "kgen",
      "Inputs": [
        {
          "Name": "__mye54473_myl1",
          "Dimensions": [
            8220,
            1370
          ],
          "Format/Datatype": "Float"
        },
        {
          "Name": "__mye54473_myl1",
          "Dimensions": [
            8220,
            1370
          ],
          "Format/Datatype": "Float"
        }
      ],
      "Outputs": [
        {
          "Name": "/blocks_6/attn/Softmax_output.1_myl1",
          "Dimensions": [
            8220,
            1370
          ],
          "Format/Datatype": "Float"
        }
      ],
      "TacticName": "__myl_MaxrSubExpSumDivMul_0xe2034576008d721e860d6057ab737a9a",
      "StreamId": 0,
      "Metadata": "[ONNX Layer: /blocks.6/attn/Softmax]"
    },
    {
      "Name": "/blocks_6/attn/MatMul_1_myl1_69",
      "LayerType": "gemm",
      "Inputs": [
        {
          "Name": "/blocks_6/attn/Softmax_output.1_myl1",
          "Dimensions": [
            6,
            1370,
            1370
          ],
          "Format/Datatype": "Float"
        },
        {
          "Name": "__mye57810_myl1",
          "Dimensions": [
            6,
            1370,
            64
          ],
          "Format/Datatype": "Float"
        }
      ],
      "Outputs": [
        {
          "Name": "__mye54494_myl1",
          "Dimensions": [
            6,
            1370,
            64
          ],
          "Format/Datatype": "Float"
        }
      ],
      "TacticName": "sm80_xmma_gemm_f32f32_f32f32_f32_nn_n_tilesize64x64x8_stage3_warpsize1x4x1_ffma_aligna4_alignc4",
      "StreamId": 0,
      "Metadata": "[ONNX Layer: /blocks.6/attn/MatMul_1]"
    },
    {
      "Name": "/blocks_6/attn/proj/MatMul_myl1_70",
      "LayerType": "gemm",
      "Inputs": [
        {
          "Name": "__mye54494_myl1",
          "Dimensions": [
            1,
            1370,
            384
          ],
          "Format/Datatype": "Float"
        }
      ],
      "Outputs": [
        {
          "Name": "__myln_k_arg__bb1_89_myl1",
          "Dimensions": [
            1,
            1370,
            384
          ],
          "Format/Datatype": "Float"
        }
      ],
      "TacticName": "sm86_xmma_gemm_f32f32_tf32f32_f32_tn_n_tilesize64x64x64_stage3_warpsize2x2x1_tensor16x8x8",
      "StreamId": 0,
      "Metadata": "[ONNX Layer: /blocks.6/attn/proj/MatMul]\u001f[ONNX Layer: /blocks.6/attn/proj/Add]"
    },
    {
      "Name": "__myl_MulAddMeanSubMulMeanAddSqrtDivMulMulAdd_myl1_71",
      "LayerType": "kgen",
      "Inputs": [
        {
          "Name": "__myln_k_arg__bb1_81_myl1",
          "Dimensions": [
            1,
            1370,
            384
          ],
          "Format/Datatype": "Float"
        },
        {
          "Name": "__myln_k_arg__bb1_89_myl1",
          "Dimensions": [
            1,
            1370,
            384
          ],
          "Format/Datatype": "Float"
        }
      ],
      "Outputs": [
        {
          "Name": "/blocks_6/mlp/fc1/Add_output_0.1_91_myl1",
          "Dimensions": [
            1,
            1370,
            384
          ],
          "Format/Datatype": "Float"
        },
        {
          "Name": "__myln_k_arg__bb1_90_myl1",
          "Dimensions": [
            1,
            1370,
            384
          ],
          "Format/Datatype": "Float"
        }
      ],
      "TacticName": "__myl_MulAddMeanSubMulMeanAddSqrtDivMulMulAdd_0x1468acd29c53e73f8b9006fcdc1f72ab",
      "StreamId": 0,
      "Metadata": "[ONNX Layer: /blocks.6/ls1/Mul]\u001f[ONNX Layer: /blocks.6/norm2/ReduceMean_1]\u001f[ONNX Layer: /blocks.6/norm2/Sub]\u001f[ONNX Layer: /blocks.6/norm2/Pow]\u001f[ONNX Layer: /blocks.6/norm2/ReduceMean]\u001f[ONNX Layer: /blocks.6/Add]\u001f[ONNX Layer: /blocks.6/norm2/Div]\u001f[ONNX Layer: /blocks.6/norm2/Add_1]\u001f[ONNX Layer: /blocks.6/norm2/Mul]\u001f[ONNX Layer: /blocks.6/norm2/Sqrt]\u001f[ONNX Layer: /blocks.6/norm2/Add]"
    },
    {
      "Name": "/blocks_6/mlp/fc1/MatMul_myl1_72",
      "LayerType": "gemm",
      "Inputs": [
        {
          "Name": "/blocks_6/mlp/fc1/Add_output_0.1_91_myl1",
          "Dimensions": [
            1,
            1370,
            384
          ],
          "Format/Datatype": "Float"
        }
      ],
      "Outputs": [
        {
          "Name": "__myln_k_arg__bb1_92_myl1",
          "Dimensions": [
            1,
            1370,
            1536
          ],
          "Format/Datatype": "Float"
        }
      ],
      "TacticName": "sm80_xmma_gemm_f32f32_tf32f32_f32_nn_n_tilesize64x128x16_stage4_warpsize2x2x1_tensor16x8x8",
      "StreamId": 0,
      "Metadata": "[ONNX Layer: /blocks.6/mlp/fc1/MatMul]\u001f[ONNX Layer: /blocks.6/mlp/fc1/Add]"
    },
    {
      "Name": "__myl_DivErfAddMulMul_myl1_73",
      "LayerType": "kgen",
      "Inputs": [
        {
          "Name": "__myln_k_arg__bb1_92_myl1",
          "Dimensions": [
            1,
            1370,
            1536
          ],
          "Format/Datatype": "Float"
        },
        {
          "Name": "__myln_k_arg__bb1_92_myl1",
          "Dimensions": [
            1,
            1370,
            1536
          ],
          "Format/Datatype": "Float"
        }
      ],
      "Outputs": [
        {
          "Name": "/blocks_6/mlp/fc2/Add_output_0.1_93_myl1",
          "Dimensions": [
            1,
            1370,
            1536
          ],
          "Format/Datatype": "Float"
        }
      ],
      "TacticName": "__myl_DivErfAddMulMul_0xa13e1a5ba2820702b6e38bbb9fd5254b",
      "StreamId": 0,
      "Metadata": "[ONNX Layer: /blocks.6/mlp/act/Mul_1]\u001f[ONNX Layer: /blocks.6/mlp/act/Mul]\u001f[ONNX Layer: /blocks.6/mlp/act/Add]\u001f[ONNX Layer: /blocks.6/mlp/act/Div]\u001f[ONNX Layer: /blocks.6/mlp/act/Erf]"
    },
    {
      "Name": "/blocks_6/mlp/fc2/MatMul_myl1_74",
      "LayerType": "gemm",
      "Inputs": [
        {
          "Name": "/blocks_6/mlp/fc2/Add_output_0.1_93_myl1",
          "Dimensions": [
            1,
            1370,
            1536
          ],
          "Format/Datatype": "Float"
        }
      ],
      "Outputs": [
        {
          "Name": "__myln_k_arg__bb1_94_myl1",
          "Dimensions": [
            1,
            1370,
            384
          ],
          "Format/Datatype": "Float"
        }
      ],
      "TacticName": "sm86_xmma_gemm_f32f32_tf32f32_f32_tn_n_tilesize64x64x64_stage3_warpsize2x2x1_tensor16x8x8",
      "StreamId": 0,
      "Metadata": "[ONNX Layer: /blocks.6/mlp/fc2/MatMul]\u001f[ONNX Layer: /blocks.6/mlp/fc2/Add]"
    },
    {
      "Name": "__myl_MulAddMeanSubMulMeanAddSqrtDivMulMulAdd_myl1_75",
      "LayerType": "kgen",
      "Inputs": [
        {
          "Name": "__myln_k_arg__bb1_90_myl1",
          "Dimensions": [
            1,
            1370,
            384
          ],
          "Format/Datatype": "Float"
        },
        {
          "Name": "__myln_k_arg__bb1_94_myl1",
          "Dimensions": [
            1,
            1370,
            384
          ],
          "Format/Datatype": "Float"
        }
      ],
      "Outputs": [
        {
          "Name": "__mye57793_96_myl1",
          "Dimensions": [
            1,
            1370,
            384
          ],
          "Format/Datatype": "Float"
        },
        {
          "Name": "__myln_k_arg__bb1_95_myl1",
          "Dimensions": [
            1,
            1370,
            384
          ],
          "Format/Datatype": "Float"
        }
      ],
      "TacticName": "__myl_MulAddMeanSubMulMeanAddSqrtDivMulMulAdd_0x1468acd29c53e73f8b9006fcdc1f72ab",
      "StreamId": 0,
      "Metadata": "[ONNX Layer: /blocks.6/ls2/Mul]\u001f[ONNX Layer: /blocks.7/norm1/ReduceMean_1]\u001f[ONNX Layer: /blocks.7/norm1/Sub]\u001f[ONNX Layer: /blocks.7/norm1/Pow]\u001f[ONNX Layer: /blocks.7/norm1/ReduceMean]\u001f[ONNX Layer: /blocks.6/Add_1]\u001f[ONNX Layer: /blocks.7/norm1/Div]\u001f[ONNX Layer: /blocks.7/norm1/Add_1]\u001f[ONNX Layer: /blocks.7/norm1/Mul]\u001f[ONNX Layer: /blocks.7/norm1/Sqrt]\u001f[ONNX Layer: /blocks.7/norm1/Add]"
    },
    {
      "Name": "__mye56285+__mye56273+__mye56261_myl1_76",
      "LayerType": "gemm",
      "Inputs": [
        {
          "Name": "__mye57793_96_myl1",
          "Dimensions": [
            1,
            1370,
            384
          ],
          "Format/Datatype": "Float"
        }
      ],
      "Outputs": [
        {
          "Name": "__mye57793_myl1",
          "Dimensions": [
            3,
            1370,
            384
          ],
          "Format/Datatype": "Float"
        }
      ],
      "TacticName": "sm80_xmma_gemm_f32f32_tf32f32_f32_nn_n_tilesize64x128x16_stage4_warpsize2x2x1_tensor16x8x8",
      "StreamId": 0,
      "Metadata": "[ONNX Layer: /blocks.7/attn/qkv/MatMul]\u001f[ONNX Layer: /blocks.7/attn/qkv/Add]"
    },
    {
      "Name": "/blocks_7/attn/MatMul_myl1_77",
      "LayerType": "gemm",
      "Inputs": [
        {
          "Name": "__mye57793_myl1",
          "Dimensions": [
            6,
            1370,
            64
          ],
          "Format/Datatype": "Float"
        },
        {
          "Name": "__mye57793_myl1",
          "Dimensions": [
            6,
            64,
            1370
          ],
          "Format/Datatype": "Float"
        }
      ],
      "Outputs": [
        {
          "Name": "__mye54559_myl1",
          "Dimensions": [
            6,
            1370,
            1370
          ],
          "Format/Datatype": "Float"
        }
      ],
      "TacticName": "sm80_xmma_gemm_f32f32_tf32f32_f32_tn_n_tilesize64x128x16_stage4_warpsize2x2x1_tensor16x8x8_aligna4_alignc4",
      "StreamId": 0,
      "Metadata": "[ONNX Layer: /blocks.7/attn/MatMul]\u001f[ONNX Layer: /blocks.7/attn/Mul]"
    },
    {
      "Name": "__myl_MaxrSubExpSumDivMul_myl1_78",
      "LayerType": "kgen",
      "Inputs": [
        {
          "Name": "__mye54559_myl1",
          "Dimensions": [
            8220,
            1370
          ],
          "Format/Datatype": "Float"
        },
        {
          "Name": "__mye54559_myl1",
          "Dimensions": [
            8220,
            1370
          ],
          "Format/Datatype": "Float"
        }
      ],
      "Outputs": [
        {
          "Name": "/blocks_7/attn/Softmax_output.1_myl1",
          "Dimensions": [
            8220,
            1370
          ],
          "Format/Datatype": "Float"
        }
      ],
      "TacticName": "__myl_MaxrSubExpSumDivMul_0xe2034576008d721e860d6057ab737a9a",
      "StreamId": 0,
      "Metadata": "[ONNX Layer: /blocks.7/attn/Softmax]"
    },
    {
      "Name": "/blocks_7/attn/MatMul_1_myl1_79",
      "LayerType": "gemm",
      "Inputs": [
        {
          "Name": "/blocks_7/attn/Softmax_output.1_myl1",
          "Dimensions": [
            6,
            1370,
            1370
          ],
          "Format/Datatype": "Float"
        },
        {
          "Name": "__mye57793_myl1",
          "Dimensions": [
            6,
            1370,
            64
          ],
          "Format/Datatype": "Float"
        }
      ],
      "Outputs": [
        {
          "Name": "__mye54580_myl1",
          "Dimensions": [
            6,
            1370,
            64
          ],
          "Format/Datatype": "Float"
        }
      ],
      "TacticName": "sm80_xmma_gemm_f32f32_f32f32_f32_nn_n_tilesize64x64x8_stage3_warpsize1x4x1_ffma_aligna4_alignc4",
      "StreamId": 0,
      "Metadata": "[ONNX Layer: /blocks.7/attn/MatMul_1]"
    },
    {
      "Name": "/blocks_7/attn/proj/MatMul_myl1_80",
      "LayerType": "gemm",
      "Inputs": [
        {
          "Name": "__mye54580_myl1",
          "Dimensions": [
            1,
            1370,
            384
          ],
          "Format/Datatype": "Float"
        }
      ],
      "Outputs": [
        {
          "Name": "__myln_k_arg__bb1_101_myl1",
          "Dimensions": [
            1,
            1370,
            384
          ],
          "Format/Datatype": "Float"
        }
      ],
      "TacticName": "sm86_xmma_gemm_f32f32_tf32f32_f32_tn_n_tilesize64x64x64_stage3_warpsize2x2x1_tensor16x8x8",
      "StreamId": 0,
      "Metadata": "[ONNX Layer: /blocks.7/attn/proj/MatMul]\u001f[ONNX Layer: /blocks.7/attn/proj/Add]"
    },
    {
      "Name": "__myl_MulAddMeanSubMulMeanAddSqrtDivMulMulAdd_myl1_81",
      "LayerType": "kgen",
      "Inputs": [
        {
          "Name": "__myln_k_arg__bb1_95_myl1",
          "Dimensions": [
            1,
            1370,
            384
          ],
          "Format/Datatype": "Float"
        },
        {
          "Name": "__myln_k_arg__bb1_101_myl1",
          "Dimensions": [
            1,
            1370,
            384
          ],
          "Format/Datatype": "Float"
        }
      ],
      "Outputs": [
        {
          "Name": "/blocks_7/mlp/fc1/Add_output_0.1_103_myl1",
          "Dimensions": [
            1,
            1370,
            384
          ],
          "Format/Datatype": "Float"
        },
        {
          "Name": "__myln_k_arg__bb1_102_myl1",
          "Dimensions": [
            1,
            1370,
            384
          ],
          "Format/Datatype": "Float"
        }
      ],
      "TacticName": "__myl_MulAddMeanSubMulMeanAddSqrtDivMulMulAdd_0x1468acd29c53e73f8b9006fcdc1f72ab",
      "StreamId": 0,
      "Metadata": "[ONNX Layer: /blocks.7/ls1/Mul]\u001f[ONNX Layer: /blocks.7/norm2/ReduceMean_1]\u001f[ONNX Layer: /blocks.7/norm2/Sub]\u001f[ONNX Layer: /blocks.7/norm2/Pow]\u001f[ONNX Layer: /blocks.7/norm2/ReduceMean]\u001f[ONNX Layer: /blocks.7/Add]\u001f[ONNX Layer: /blocks.7/norm2/Div]\u001f[ONNX Layer: /blocks.7/norm2/Add_1]\u001f[ONNX Layer: /blocks.7/norm2/Mul]\u001f[ONNX Layer: /blocks.7/norm2/Sqrt]\u001f[ONNX Layer: /blocks.7/norm2/Add]"
    },
    {
      "Name": "/blocks_7/mlp/fc1/MatMul_myl1_82",
      "LayerType": "gemm",
      "Inputs": [
        {
          "Name": "/blocks_7/mlp/fc1/Add_output_0.1_103_myl1",
          "Dimensions": [
            1,
            1370,
            384
          ],
          "Format/Datatype": "Float"
        }
      ],
      "Outputs": [
        {
          "Name": "__myln_k_arg__bb1_104_myl1",
          "Dimensions": [
            1,
            1370,
            1536
          ],
          "Format/Datatype": "Float"
        }
      ],
      "TacticName": "sm80_xmma_gemm_f32f32_tf32f32_f32_nn_n_tilesize64x128x16_stage4_warpsize2x2x1_tensor16x8x8",
      "StreamId": 0,
      "Metadata": "[ONNX Layer: /blocks.7/mlp/fc1/MatMul]\u001f[ONNX Layer: /blocks.7/mlp/fc1/Add]"
    },
    {
      "Name": "__myl_DivErfAddMulMul_myl1_83",
      "LayerType": "kgen",
      "Inputs": [
        {
          "Name": "__myln_k_arg__bb1_104_myl1",
          "Dimensions": [
            1,
            1370,
            1536
          ],
          "Format/Datatype": "Float"
        },
        {
          "Name": "__myln_k_arg__bb1_104_myl1",
          "Dimensions": [
            1,
            1370,
            1536
          ],
          "Format/Datatype": "Float"
        }
      ],
      "Outputs": [
        {
          "Name": "/blocks_7/mlp/fc2/Add_output_0.1_105_myl1",
          "Dimensions": [
            1,
            1370,
            1536
          ],
          "Format/Datatype": "Float"
        }
      ],
      "TacticName": "__myl_DivErfAddMulMul_0xa13e1a5ba2820702b6e38bbb9fd5254b",
      "StreamId": 0,
      "Metadata": "[ONNX Layer: /blocks.7/mlp/act/Mul_1]\u001f[ONNX Layer: /blocks.7/mlp/act/Mul]\u001f[ONNX Layer: /blocks.7/mlp/act/Add]\u001f[ONNX Layer: /blocks.7/mlp/act/Div]\u001f[ONNX Layer: /blocks.7/mlp/act/Erf]"
    },
    {
      "Name": "/blocks_7/mlp/fc2/MatMul_myl1_84",
      "LayerType": "gemm",
      "Inputs": [
        {
          "Name": "/blocks_7/mlp/fc2/Add_output_0.1_105_myl1",
          "Dimensions": [
            1,
            1370,
            1536
          ],
          "Format/Datatype": "Float"
        }
      ],
      "Outputs": [
        {
          "Name": "__myln_k_arg__bb1_106_myl1",
          "Dimensions": [
            1,
            1370,
            384
          ],
          "Format/Datatype": "Float"
        }
      ],
      "TacticName": "sm86_xmma_gemm_f32f32_tf32f32_f32_tn_n_tilesize64x64x64_stage3_warpsize2x2x1_tensor16x8x8",
      "StreamId": 0,
      "Metadata": "[ONNX Layer: /blocks.7/mlp/fc2/MatMul]\u001f[ONNX Layer: /blocks.7/mlp/fc2/Add]"
    },
    {
      "Name": "__myl_MulAddMeanSubMulMeanAddSqrtDivMulMulAdd_myl1_85",
      "LayerType": "kgen",
      "Inputs": [
        {
          "Name": "__myln_k_arg__bb1_102_myl1",
          "Dimensions": [
            1,
            1370,
            384
          ],
          "Format/Datatype": "Float"
        },
        {
          "Name": "__myln_k_arg__bb1_106_myl1",
          "Dimensions": [
            1,
            1370,
            384
          ],
          "Format/Datatype": "Float"
        }
      ],
      "Outputs": [
        {
          "Name": "__mye57776_108_myl1",
          "Dimensions": [
            1,
            1370,
            384
          ],
          "Format/Datatype": "Float"
        },
        {
          "Name": "__myln_k_arg__bb1_107_myl1",
          "Dimensions": [
            1,
            1370,
            384
          ],
          "Format/Datatype": "Float"
        }
      ],
      "TacticName": "__myl_MulAddMeanSubMulMeanAddSqrtDivMulMulAdd_0x1468acd29c53e73f8b9006fcdc1f72ab",
      "StreamId": 0,
      "Metadata": "[ONNX Layer: /blocks.7/ls2/Mul]\u001f[ONNX Layer: /blocks.8/norm1/ReduceMean_1]\u001f[ONNX Layer: /blocks.8/norm1/Sub]\u001f[ONNX Layer: /blocks.8/norm1/Pow]\u001f[ONNX Layer: /blocks.8/norm1/ReduceMean]\u001f[ONNX Layer: /blocks.7/Add_1]\u001f[ONNX Layer: /blocks.8/norm1/Div]\u001f[ONNX Layer: /blocks.8/norm1/Add_1]\u001f[ONNX Layer: /blocks.8/norm1/Mul]\u001f[ONNX Layer: /blocks.8/norm1/Sqrt]\u001f[ONNX Layer: /blocks.8/norm1/Add]"
    },
    {
      "Name": "__mye56400+__mye56388+__mye56376_myl1_86",
      "LayerType": "gemm",
      "Inputs": [
        {
          "Name": "__mye57776_108_myl1",
          "Dimensions": [
            1,
            1370,
            384
          ],
          "Format/Datatype": "Float"
        }
      ],
      "Outputs": [
        {
          "Name": "__mye57776_myl1",
          "Dimensions": [
            3,
            1370,
            384
          ],
          "Format/Datatype": "Float"
        }
      ],
      "TacticName": "sm80_xmma_gemm_f32f32_tf32f32_f32_nn_n_tilesize64x128x16_stage4_warpsize2x2x1_tensor16x8x8",
      "StreamId": 0,
      "Metadata": "[ONNX Layer: /blocks.8/attn/qkv/MatMul]\u001f[ONNX Layer: /blocks.8/attn/qkv/Add]"
    },
    {
      "Name": "/blocks_8/attn/MatMul_myl1_87",
      "LayerType": "gemm",
      "Inputs": [
        {
          "Name": "__mye57776_myl1",
          "Dimensions": [
            6,
            1370,
            64
          ],
          "Format/Datatype": "Float"
        },
        {
          "Name": "__mye57776_myl1",
          "Dimensions": [
            6,
            64,
            1370
          ],
          "Format/Datatype": "Float"
        }
      ],
      "Outputs": [
        {
          "Name": "__mye54645_myl1",
          "Dimensions": [
            6,
            1370,
            1370
          ],
          "Format/Datatype": "Float"
        }
      ],
      "TacticName": "sm80_xmma_gemm_f32f32_tf32f32_f32_tn_n_tilesize64x128x16_stage4_warpsize2x2x1_tensor16x8x8_aligna4_alignc4",
      "StreamId": 0,
      "Metadata": "[ONNX Layer: /blocks.8/attn/MatMul]\u001f[ONNX Layer: /blocks.8/attn/Mul]"
    },
    {
      "Name": "__myl_MaxrSubExpSumDivMul_myl1_88",
      "LayerType": "kgen",
      "Inputs": [
        {
          "Name": "__mye54645_myl1",
          "Dimensions": [
            8220,
            1370
          ],
          "Format/Datatype": "Float"
        },
        {
          "Name": "__mye54645_myl1",
          "Dimensions": [
            8220,
            1370
          ],
          "Format/Datatype": "Float"
        }
      ],
      "Outputs": [
        {
          "Name": "/blocks_8/attn/Softmax_output.1_myl1",
          "Dimensions": [
            8220,
            1370
          ],
          "Format/Datatype": "Float"
        }
      ],
      "TacticName": "__myl_MaxrSubExpSumDivMul_0xe2034576008d721e860d6057ab737a9a",
      "StreamId": 0,
      "Metadata": "[ONNX Layer: /blocks.8/attn/Softmax]"
    },
    {
      "Name": "/blocks_8/attn/MatMul_1_myl1_89",
      "LayerType": "gemm",
      "Inputs": [
        {
          "Name": "/blocks_8/attn/Softmax_output.1_myl1",
          "Dimensions": [
            6,
            1370,
            1370
          ],
          "Format/Datatype": "Float"
        },
        {
          "Name": "__mye57776_myl1",
          "Dimensions": [
            6,
            1370,
            64
          ],
          "Format/Datatype": "Float"
        }
      ],
      "Outputs": [
        {
          "Name": "__mye54666_myl1",
          "Dimensions": [
            6,
            1370,
            64
          ],
          "Format/Datatype": "Float"
        }
      ],
      "TacticName": "sm80_xmma_gemm_f32f32_f32f32_f32_nn_n_tilesize64x64x8_stage3_warpsize1x4x1_ffma_aligna4_alignc4",
      "StreamId": 0,
      "Metadata": "[ONNX Layer: /blocks.8/attn/MatMul_1]"
    },
    {
      "Name": "/blocks_8/attn/proj/MatMul_myl1_90",
      "LayerType": "gemm",
      "Inputs": [
        {
          "Name": "__mye54666_myl1",
          "Dimensions": [
            1,
            1370,
            384
          ],
          "Format/Datatype": "Float"
        }
      ],
      "Outputs": [
        {
          "Name": "__myln_k_arg__bb1_113_myl1",
          "Dimensions": [
            1,
            1370,
            384
          ],
          "Format/Datatype": "Float"
        }
      ],
      "TacticName": "sm86_xmma_gemm_f32f32_tf32f32_f32_tn_n_tilesize64x64x64_stage3_warpsize2x2x1_tensor16x8x8",
      "StreamId": 0,
      "Metadata": "[ONNX Layer: /blocks.8/attn/proj/MatMul]\u001f[ONNX Layer: /blocks.8/attn/proj/Add]"
    },
    {
      "Name": "__myl_MulAddMeanSubMulMeanAddSqrtDivMulMulAdd_myl1_91",
      "LayerType": "kgen",
      "Inputs": [
        {
          "Name": "__myln_k_arg__bb1_107_myl1",
          "Dimensions": [
            1,
            1370,
            384
          ],
          "Format/Datatype": "Float"
        },
        {
          "Name": "__myln_k_arg__bb1_113_myl1",
          "Dimensions": [
            1,
            1370,
            384
          ],
          "Format/Datatype": "Float"
        }
      ],
      "Outputs": [
        {
          "Name": "/blocks_8/mlp/fc1/Add_output_0.1_115_myl1",
          "Dimensions": [
            1,
            1370,
            384
          ],
          "Format/Datatype": "Float"
        },
        {
          "Name": "__myln_k_arg__bb1_114_myl1",
          "Dimensions": [
            1,
            1370,
            384
          ],
          "Format/Datatype": "Float"
        }
      ],
      "TacticName": "__myl_MulAddMeanSubMulMeanAddSqrtDivMulMulAdd_0x1468acd29c53e73f8b9006fcdc1f72ab",
      "StreamId": 0,
      "Metadata": "[ONNX Layer: /blocks.8/ls1/Mul]\u001f[ONNX Layer: /blocks.8/norm2/ReduceMean_1]\u001f[ONNX Layer: /blocks.8/norm2/Sub]\u001f[ONNX Layer: /blocks.8/norm2/Pow]\u001f[ONNX Layer: /blocks.8/norm2/ReduceMean]\u001f[ONNX Layer: /blocks.8/Add]\u001f[ONNX Layer: /blocks.8/norm2/Div]\u001f[ONNX Layer: /blocks.8/norm2/Add_1]\u001f[ONNX Layer: /blocks.8/norm2/Mul]\u001f[ONNX Layer: /blocks.8/norm2/Sqrt]\u001f[ONNX Layer: /blocks.8/norm2/Add]"
    },
    {
      "Name": "/blocks_8/mlp/fc1/MatMul_myl1_92",
      "LayerType": "gemm",
      "Inputs": [
        {
          "Name": "/blocks_8/mlp/fc1/Add_output_0.1_115_myl1",
          "Dimensions": [
            1,
            1370,
            384
          ],
          "Format/Datatype": "Float"
        }
      ],
      "Outputs": [
        {
          "Name": "__myln_k_arg__bb1_116_myl1",
          "Dimensions": [
            1,
            1370,
            1536
          ],
          "Format/Datatype": "Float"
        }
      ],
      "TacticName": "sm80_xmma_gemm_f32f32_tf32f32_f32_nn_n_tilesize64x128x16_stage4_warpsize2x2x1_tensor16x8x8",
      "StreamId": 0,
      "Metadata": "[ONNX Layer: /blocks.8/mlp/fc1/MatMul]\u001f[ONNX Layer: /blocks.8/mlp/fc1/Add]"
    },
    {
      "Name": "__myl_DivErfAddMulMul_myl1_93",
      "LayerType": "kgen",
      "Inputs": [
        {
          "Name": "__myln_k_arg__bb1_116_myl1",
          "Dimensions": [
            1,
            1370,
            1536
          ],
          "Format/Datatype": "Float"
        },
        {
          "Name": "__myln_k_arg__bb1_116_myl1",
          "Dimensions": [
            1,
            1370,
            1536
          ],
          "Format/Datatype": "Float"
        }
      ],
      "Outputs": [
        {
          "Name": "/blocks_8/mlp/fc2/Add_output_0.1_117_myl1",
          "Dimensions": [
            1,
            1370,
            1536
          ],
          "Format/Datatype": "Float"
        }
      ],
      "TacticName": "__myl_DivErfAddMulMul_0xa13e1a5ba2820702b6e38bbb9fd5254b",
      "StreamId": 0,
      "Metadata": "[ONNX Layer: /blocks.8/mlp/act/Mul_1]\u001f[ONNX Layer: /blocks.8/mlp/act/Mul]\u001f[ONNX Layer: /blocks.8/mlp/act/Add]\u001f[ONNX Layer: /blocks.8/mlp/act/Div]\u001f[ONNX Layer: /blocks.8/mlp/act/Erf]"
    },
    {
      "Name": "/blocks_8/mlp/fc2/MatMul_myl1_94",
      "LayerType": "gemm",
      "Inputs": [
        {
          "Name": "/blocks_8/mlp/fc2/Add_output_0.1_117_myl1",
          "Dimensions": [
            1,
            1370,
            1536
          ],
          "Format/Datatype": "Float"
        }
      ],
      "Outputs": [
        {
          "Name": "__myln_k_arg__bb1_118_myl1",
          "Dimensions": [
            1,
            1370,
            384
          ],
          "Format/Datatype": "Float"
        }
      ],
      "TacticName": "sm86_xmma_gemm_f32f32_tf32f32_f32_tn_n_tilesize64x64x64_stage3_warpsize2x2x1_tensor16x8x8",
      "StreamId": 0,
      "Metadata": "[ONNX Layer: /blocks.8/mlp/fc2/MatMul]\u001f[ONNX Layer: /blocks.8/mlp/fc2/Add]"
    },
    {
      "Name": "__myl_MulAddMeanSubMulMean_myl1_95",
      "LayerType": "kgen",
      "Inputs": [
        {
          "Name": "__myln_k_arg__bb1_114_myl1",
          "Dimensions": [
            1,
            1370,
            384
          ],
          "Format/Datatype": "Float"
        },
        {
          "Name": "__myln_k_arg__bb1_118_myl1",
          "Dimensions": [
            1,
            1370,
            384
          ],
          "Format/Datatype": "Float"
        }
      ],
      "Outputs": [
        {
          "Name": "__myln_k_arg__bb1_121_myl1",
          "Dimensions": [
            1,
            1370,
            384
          ],
          "Format/Datatype": "Float"
        },
        {
          "Name": "__myln_k_arg__bb1_120_myl1",
          "Dimensions": [
            1,
            1370,
            384
          ],
          "Format/Datatype": "Float"
        },
        {
          "Name": "__myln_k_arg__bb1_119_myl1",
          "Dimensions": [
            1,
            1370,
            1
          ],
          "Format/Datatype": "Float"
        }
      ],
      "TacticName": "__myl_MulAddMeanSubMulMean_0xb2899c7617a011ab73681d0be2e04fc9",
      "StreamId": 0,
      "Metadata": "[ONNX Layer: /blocks.8/ls2/Mul]\u001f[ONNX Layer: /norm_2/ReduceMean_1]\u001f[ONNX Layer: /norm_2/Sub]\u001f[ONNX Layer: /norm_2/Pow]\u001f[ONNX Layer: /norm_2/ReduceMean]\u001f[ONNX Layer: /blocks.8/Add_1]"
    },
    {
      "Name": "__myl_AddSqrtDivMulMulMulAddAddSlic_myl1_96",
      "LayerType": "kgen",
      "Inputs": [
        {
          "Name": "__myln_k_arg__bb1_120_myl1",
          "Dimensions": [
            1,
            1370,
            384
          ],
          "Format/Datatype": "Float"
        },
        {
          "Name": "__myln_k_arg__bb1_119_myl1",
          "Dimensions": [
            1,
            1370,
            1
          ],
          "Format/Datatype": "Float"
        }
      ],
      "Outputs": [
        {
          "Name": "__myln_k_arg__bb1_123_myl1",
          "Dimensions": [
            1,
            1369,
            384
          ],
          "Format/Datatype": "Float"
        },
        {
          "Name": "__myln_k_arg__bb1_122_myl1",
          "Dimensions": [
            1,
            1370,
            384
          ],
          "Format/Datatype": "Float"
        }
      ],
      "TacticName": "__myl_AddSqrtDivMulMulMulAddAddSlic_0x1b6c2520a12ee4f1fb8ddf4ea4ae8ef3",
      "StreamId": 0,
      "Metadata": "[ONNX Layer: /norm_2/Add]\u001f[ONNX Layer: /norm_2/Sqrt]\u001f[ONNX Layer: /norm_2/Div]\u001f[ONNX Layer: /blocks.9/norm1/Add_1]\u001f[ONNX Layer: /blocks.9/norm1/Mul]\u001f[ONNX Layer: /Slice_2]\u001f[ONNX Layer: /norm_2/Add_1]\u001f[ONNX Layer: /norm_2/Mul]"
    },
    {
      "Name": "__myl_Tran_myl1_97",
      "LayerType": "kgen",
      "Inputs": [
        {
          "Name": "__myln_k_arg__bb1_123_myl1",
          "Dimensions": [
            1,
            1369,
            384
          ],
          "Format/Datatype": "Float"
        }
      ],
      "Outputs": [
        {
          "Name": "/depth_head/Reshape_2_output_0",
          "Dimensions": [
            1,
            384,
            1369
          ],
          "Format/Datatype": "Float"
        }
      ],
      "TacticName": "__myl_Tran_0xdcd1d5577a1f1b1cfd2c4babe6cbe7ad",
      "StreamId": 0,
      "Metadata": "[ONNX Layer: /depth_head/Transpose_2]\u001e[ONNX Layer: /depth_head/Reshape_2]"
    },
    {
      "Name": "__mye56515+__mye56503+__mye56491_myl1_98",
      "LayerType": "gemm",
      "Inputs": [
        {
          "Name": "__myln_k_arg__bb1_122_myl1",
          "Dimensions": [
            1,
            1370,
            384
          ],
          "Format/Datatype": "Float"
        }
      ],
      "Outputs": [
        {
          "Name": "__mye57759_myl1",
          "Dimensions": [
            3,
            1370,
            384
          ],
          "Format/Datatype": "Float"
        }
      ],
      "TacticName": "sm80_xmma_gemm_f32f32_tf32f32_f32_nn_n_tilesize64x128x16_stage4_warpsize2x2x1_tensor16x8x8",
      "StreamId": 0,
      "Metadata": "[ONNX Layer: /blocks.9/attn/qkv/MatMul]\u001f[ONNX Layer: /blocks.9/attn/qkv/Add]"
    },
    {
      "Name": "/blocks_9/attn/MatMul_myl1_99",
      "LayerType": "gemm",
      "Inputs": [
        {
          "Name": "__mye57759_myl1",
          "Dimensions": [
            6,
            1370,
            64
          ],
          "Format/Datatype": "Float"
        },
        {
          "Name": "__mye57759_myl1",
          "Dimensions": [
            6,
            64,
            1370
          ],
          "Format/Datatype": "Float"
        }
      ],
      "Outputs": [
        {
          "Name": "__mye54731_myl1",
          "Dimensions": [
            6,
            1370,
            1370
          ],
          "Format/Datatype": "Float"
        }
      ],
      "TacticName": "sm80_xmma_gemm_f32f32_tf32f32_f32_tn_n_tilesize64x128x16_stage4_warpsize2x2x1_tensor16x8x8_aligna4_alignc4",
      "StreamId": 0,
      "Metadata": "[ONNX Layer: /blocks.9/attn/MatMul]\u001f[ONNX Layer: /blocks.9/attn/Mul]"
    },
    {
      "Name": "__myl_MaxrSubExpSumDivMul_myl1_100",
      "LayerType": "kgen",
      "Inputs": [
        {
          "Name": "__mye54731_myl1",
          "Dimensions": [
            8220,
            1370
          ],
          "Format/Datatype": "Float"
        },
        {
          "Name": "__mye54731_myl1",
          "Dimensions": [
            8220,
            1370
          ],
          "Format/Datatype": "Float"
        }
      ],
      "Outputs": [
        {
          "Name": "/blocks_9/attn/Softmax_output.1_myl1",
          "Dimensions": [
            8220,
            1370
          ],
          "Format/Datatype": "Float"
        }
      ],
      "TacticName": "__myl_MaxrSubExpSumDivMul_0xe2034576008d721e860d6057ab737a9a",
      "StreamId": 0,
      "Metadata": "[ONNX Layer: /blocks.9/attn/Softmax]"
    },
    {
      "Name": "/blocks_9/attn/MatMul_1_myl1_101",
      "LayerType": "gemm",
      "Inputs": [
        {
          "Name": "/blocks_9/attn/Softmax_output.1_myl1",
          "Dimensions": [
            6,
            1370,
            1370
          ],
          "Format/Datatype": "Float"
        },
        {
          "Name": "__mye57759_myl1",
          "Dimensions": [
            6,
            1370,
            64
          ],
          "Format/Datatype": "Float"
        }
      ],
      "Outputs": [
        {
          "Name": "__mye54752_myl1",
          "Dimensions": [
            6,
            1370,
            64
          ],
          "Format/Datatype": "Float"
        }
      ],
      "TacticName": "sm80_xmma_gemm_f32f32_f32f32_f32_nn_n_tilesize64x64x8_stage3_warpsize1x4x1_ffma_aligna4_alignc4",
      "StreamId": 0,
      "Metadata": "[ONNX Layer: /blocks.9/attn/MatMul_1]"
    },
    {
      "Name": "/blocks_9/attn/proj/MatMul_myl1_102",
      "LayerType": "gemm",
      "Inputs": [
        {
          "Name": "__mye54752_myl1",
          "Dimensions": [
            1,
            1370,
            384
          ],
          "Format/Datatype": "Float"
        }
      ],
      "Outputs": [
        {
          "Name": "__myln_k_arg__bb1_129_myl1",
          "Dimensions": [
            1,
            1370,
            384
          ],
          "Format/Datatype": "Float"
        }
      ],
      "TacticName": "sm86_xmma_gemm_f32f32_tf32f32_f32_tn_n_tilesize64x64x64_stage3_warpsize2x2x1_tensor16x8x8",
      "StreamId": 0,
      "Metadata": "[ONNX Layer: /blocks.9/attn/proj/MatMul]\u001f[ONNX Layer: /blocks.9/attn/proj/Add]"
    },
    {
      "Name": "__myl_MulAddMeanSubMulMeanAddSqrtDivMulMulAdd_myl1_103",
      "LayerType": "kgen",
      "Inputs": [
        {
          "Name": "__myln_k_arg__bb1_121_myl1",
          "Dimensions": [
            1,
            1370,
            384
          ],
          "Format/Datatype": "Float"
        },
        {
          "Name": "__myln_k_arg__bb1_129_myl1",
          "Dimensions": [
            1,
            1370,
            384
          ],
          "Format/Datatype": "Float"
        }
      ],
      "Outputs": [
        {
          "Name": "/blocks_9/mlp/fc1/Add_output_0.1_131_myl1",
          "Dimensions": [
            1,
            1370,
            384
          ],
          "Format/Datatype": "Float"
        },
        {
          "Name": "__myln_k_arg__bb1_130_myl1",
          "Dimensions": [
            1,
            1370,
            384
          ],
          "Format/Datatype": "Float"
        }
      ],
      "TacticName": "__myl_MulAddMeanSubMulMeanAddSqrtDivMulMulAdd_0x1468acd29c53e73f8b9006fcdc1f72ab",
      "StreamId": 0,
      "Metadata": "[ONNX Layer: /blocks.9/ls1/Mul]\u001f[ONNX Layer: /blocks.9/norm2/ReduceMean_1]\u001f[ONNX Layer: /blocks.9/norm2/Sub]\u001f[ONNX Layer: /blocks.9/norm2/Pow]\u001f[ONNX Layer: /blocks.9/norm2/ReduceMean]\u001f[ONNX Layer: /blocks.9/Add]\u001f[ONNX Layer: /blocks.9/norm2/Div]\u001f[ONNX Layer: /blocks.9/norm2/Add_1]\u001f[ONNX Layer: /blocks.9/norm2/Mul]\u001f[ONNX Layer: /blocks.9/norm2/Sqrt]\u001f[ONNX Layer: /blocks.9/norm2/Add]"
    },
    {
      "Name": "/blocks_9/mlp/fc1/MatMul_myl1_104",
      "LayerType": "gemm",
      "Inputs": [
        {
          "Name": "/blocks_9/mlp/fc1/Add_output_0.1_131_myl1",
          "Dimensions": [
            1,
            1370,
            384
          ],
          "Format/Datatype": "Float"
        }
      ],
      "Outputs": [
        {
          "Name": "__myln_k_arg__bb1_132_myl1",
          "Dimensions": [
            1,
            1370,
            1536
          ],
          "Format/Datatype": "Float"
        }
      ],
      "TacticName": "sm80_xmma_gemm_f32f32_tf32f32_f32_nn_n_tilesize64x128x16_stage4_warpsize2x2x1_tensor16x8x8",
      "StreamId": 0,
      "Metadata": "[ONNX Layer: /blocks.9/mlp/fc1/MatMul]\u001f[ONNX Layer: /blocks.9/mlp/fc1/Add]"
    },
    {
      "Name": "__myl_DivErfAddMulMul_myl1_105",
      "LayerType": "kgen",
      "Inputs": [
        {
          "Name": "__myln_k_arg__bb1_132_myl1",
          "Dimensions": [
            1,
            1370,
            1536
          ],
          "Format/Datatype": "Float"
        },
        {
          "Name": "__myln_k_arg__bb1_132_myl1",
          "Dimensions": [
            1,
            1370,
            1536
          ],
          "Format/Datatype": "Float"
        }
      ],
      "Outputs": [
        {
          "Name": "/blocks_9/mlp/fc2/Add_output_0.1_133_myl1",
          "Dimensions": [
            1,
            1370,
            1536
          ],
          "Format/Datatype": "Float"
        }
      ],
      "TacticName": "__myl_DivErfAddMulMul_0xa13e1a5ba2820702b6e38bbb9fd5254b",
      "StreamId": 0,
      "Metadata": "[ONNX Layer: /blocks.9/mlp/act/Mul_1]\u001f[ONNX Layer: /blocks.9/mlp/act/Mul]\u001f[ONNX Layer: /blocks.9/mlp/act/Add]\u001f[ONNX Layer: /blocks.9/mlp/act/Div]\u001f[ONNX Layer: /blocks.9/mlp/act/Erf]"
    },
    {
      "Name": "/blocks_9/mlp/fc2/MatMul_myl1_106",
      "LayerType": "gemm",
      "Inputs": [
        {
          "Name": "/blocks_9/mlp/fc2/Add_output_0.1_133_myl1",
          "Dimensions": [
            1,
            1370,
            1536
          ],
          "Format/Datatype": "Float"
        }
      ],
      "Outputs": [
        {
          "Name": "__myln_k_arg__bb1_134_myl1",
          "Dimensions": [
            1,
            1370,
            384
          ],
          "Format/Datatype": "Float"
        }
      ],
      "TacticName": "sm86_xmma_gemm_f32f32_tf32f32_f32_tn_n_tilesize64x64x64_stage3_warpsize2x2x1_tensor16x8x8",
      "StreamId": 0,
      "Metadata": "[ONNX Layer: /blocks.9/mlp/fc2/MatMul]\u001f[ONNX Layer: /blocks.9/mlp/fc2/Add]"
    },
    {
      "Name": "__myl_MulAddMeanSubMulMeanAddSqrtDivMulMulAdd_myl1_107",
      "LayerType": "kgen",
      "Inputs": [
        {
          "Name": "__myln_k_arg__bb1_130_myl1",
          "Dimensions": [
            1,
            1370,
            384
          ],
          "Format/Datatype": "Float"
        },
        {
          "Name": "__myln_k_arg__bb1_134_myl1",
          "Dimensions": [
            1,
            1370,
            384
          ],
          "Format/Datatype": "Float"
        }
      ],
      "Outputs": [
        {
          "Name": "__mye57742_136_myl1",
          "Dimensions": [
            1,
            1370,
            384
          ],
          "Format/Datatype": "Float"
        },
        {
          "Name": "__myln_k_arg__bb1_135_myl1",
          "Dimensions": [
            1,
            1370,
            384
          ],
          "Format/Datatype": "Float"
        }
      ],
      "TacticName": "__myl_MulAddMeanSubMulMeanAddSqrtDivMulMulAdd_0x1468acd29c53e73f8b9006fcdc1f72ab",
      "StreamId": 0,
      "Metadata": "[ONNX Layer: /blocks.9/ls2/Mul]\u001f[ONNX Layer: /blocks.10/norm1/ReduceMean_1]\u001f[ONNX Layer: /blocks.10/norm1/Sub]\u001f[ONNX Layer: /blocks.10/norm1/Pow]\u001f[ONNX Layer: /blocks.10/norm1/ReduceMean]\u001f[ONNX Layer: /blocks.9/Add_1]\u001f[ONNX Layer: /blocks.10/norm1/Div]\u001f[ONNX Layer: /blocks.10/norm1/Add_1]\u001f[ONNX Layer: /blocks.10/norm1/Mul]\u001f[ONNX Layer: /blocks.10/norm1/Sqrt]\u001f[ONNX Layer: /blocks.10/norm1/Add]"
    },
    {
      "Name": "__mye56630+__mye56618+__mye56606_myl1_108",
      "LayerType": "gemm",
      "Inputs": [
        {
          "Name": "__mye57742_136_myl1",
          "Dimensions": [
            1,
            1370,
            384
          ],
          "Format/Datatype": "Float"
        }
      ],
      "Outputs": [
        {
          "Name": "__mye57742_myl1",
          "Dimensions": [
            3,
            1370,
            384
          ],
          "Format/Datatype": "Float"
        }
      ],
      "TacticName": "sm80_xmma_gemm_f32f32_tf32f32_f32_nn_n_tilesize64x128x16_stage4_warpsize2x2x1_tensor16x8x8",
      "StreamId": 0,
      "Metadata": "[ONNX Layer: /blocks.10/attn/qkv/MatMul]\u001f[ONNX Layer: /blocks.10/attn/qkv/Add]"
    },
    {
      "Name": "/blocks_10/attn/MatMul_myl1_109",
      "LayerType": "gemm",
      "Inputs": [
        {
          "Name": "__mye57742_myl1",
          "Dimensions": [
            6,
            1370,
            64
          ],
          "Format/Datatype": "Float"
        },
        {
          "Name": "__mye57742_myl1",
          "Dimensions": [
            6,
            64,
            1370
          ],
          "Format/Datatype": "Float"
        }
      ],
      "Outputs": [
        {
          "Name": "__mye54817_myl1",
          "Dimensions": [
            6,
            1370,
            1370
          ],
          "Format/Datatype": "Float"
        }
      ],
      "TacticName": "sm80_xmma_gemm_f32f32_tf32f32_f32_tn_n_tilesize64x128x16_stage4_warpsize2x2x1_tensor16x8x8_aligna4_alignc4",
      "StreamId": 0,
      "Metadata": "[ONNX Layer: /blocks.10/attn/MatMul]\u001f[ONNX Layer: /blocks.10/attn/Mul]"
    },
    {
      "Name": "__myl_MaxrSubExpSumDivMul_myl1_110",
      "LayerType": "kgen",
      "Inputs": [
        {
          "Name": "__mye54817_myl1",
          "Dimensions": [
            8220,
            1370
          ],
          "Format/Datatype": "Float"
        },
        {
          "Name": "__mye54817_myl1",
          "Dimensions": [
            8220,
            1370
          ],
          "Format/Datatype": "Float"
        }
      ],
      "Outputs": [
        {
          "Name": "/blocks_10/attn/Softmax_output.1_myl1",
          "Dimensions": [
            8220,
            1370
          ],
          "Format/Datatype": "Float"
        }
      ],
      "TacticName": "__myl_MaxrSubExpSumDivMul_0xe2034576008d721e860d6057ab737a9a",
      "StreamId": 0,
      "Metadata": "[ONNX Layer: /blocks.10/attn/Softmax]"
    },
    {
      "Name": "/blocks_10/attn/MatMul_1_myl1_111",
      "LayerType": "gemm",
      "Inputs": [
        {
          "Name": "/blocks_10/attn/Softmax_output.1_myl1",
          "Dimensions": [
            6,
            1370,
            1370
          ],
          "Format/Datatype": "Float"
        },
        {
          "Name": "__mye57742_myl1",
          "Dimensions": [
            6,
            1370,
            64
          ],
          "Format/Datatype": "Float"
        }
      ],
      "Outputs": [
        {
          "Name": "__mye54838_myl1",
          "Dimensions": [
            6,
            1370,
            64
          ],
          "Format/Datatype": "Float"
        }
      ],
      "TacticName": "sm80_xmma_gemm_f32f32_f32f32_f32_nn_n_tilesize64x64x8_stage3_warpsize1x4x1_ffma_aligna4_alignc4",
      "StreamId": 0,
      "Metadata": "[ONNX Layer: /blocks.10/attn/MatMul_1]"
    },
    {
      "Name": "/blocks_10/attn/proj/MatMul_myl1_112",
      "LayerType": "gemm",
      "Inputs": [
        {
          "Name": "__mye54838_myl1",
          "Dimensions": [
            1,
            1370,
            384
          ],
          "Format/Datatype": "Float"
        }
      ],
      "Outputs": [
        {
          "Name": "__myln_k_arg__bb1_141_myl1",
          "Dimensions": [
            1,
            1370,
            384
          ],
          "Format/Datatype": "Float"
        }
      ],
      "TacticName": "sm86_xmma_gemm_f32f32_tf32f32_f32_tn_n_tilesize64x64x64_stage3_warpsize2x2x1_tensor16x8x8",
      "StreamId": 0,
      "Metadata": "[ONNX Layer: /blocks.10/attn/proj/MatMul]\u001f[ONNX Layer: /blocks.10/attn/proj/Add]"
    },
    {
      "Name": "__myl_MulAddMeanSubMulMeanAddSqrtDivMulMulAdd_myl1_113",
      "LayerType": "kgen",
      "Inputs": [
        {
          "Name": "__myln_k_arg__bb1_135_myl1",
          "Dimensions": [
            1,
            1370,
            384
          ],
          "Format/Datatype": "Float"
        },
        {
          "Name": "__myln_k_arg__bb1_141_myl1",
          "Dimensions": [
            1,
            1370,
            384
          ],
          "Format/Datatype": "Float"
        }
      ],
      "Outputs": [
        {
          "Name": "/blocks_10/mlp/fc1/Add_output_0.1_143_myl1",
          "Dimensions": [
            1,
            1370,
            384
          ],
          "Format/Datatype": "Float"
        },
        {
          "Name": "__myln_k_arg__bb1_142_myl1",
          "Dimensions": [
            1,
            1370,
            384
          ],
          "Format/Datatype": "Float"
        }
      ],
      "TacticName": "__myl_MulAddMeanSubMulMeanAddSqrtDivMulMulAdd_0x1468acd29c53e73f8b9006fcdc1f72ab",
      "StreamId": 0,
      "Metadata": "[ONNX Layer: /blocks.10/ls1/Mul]\u001f[ONNX Layer: /blocks.10/norm2/ReduceMean_1]\u001f[ONNX Layer: /blocks.10/norm2/Sub]\u001f[ONNX Layer: /blocks.10/norm2/Pow]\u001f[ONNX Layer: /blocks.10/norm2/ReduceMean]\u001f[ONNX Layer: /blocks.10/Add]\u001f[ONNX Layer: /blocks.10/norm2/Div]\u001f[ONNX Layer: /blocks.10/norm2/Add_1]\u001f[ONNX Layer: /blocks.10/norm2/Mul]\u001f[ONNX Layer: /blocks.10/norm2/Sqrt]\u001f[ONNX Layer: /blocks.10/norm2/Add]"
    },
    {
      "Name": "/blocks_10/mlp/fc1/MatMul_myl1_114",
      "LayerType": "gemm",
      "Inputs": [
        {
          "Name": "/blocks_10/mlp/fc1/Add_output_0.1_143_myl1",
          "Dimensions": [
            1,
            1370,
            384
          ],
          "Format/Datatype": "Float"
        }
      ],
      "Outputs": [
        {
          "Name": "__myln_k_arg__bb1_144_myl1",
          "Dimensions": [
            1,
            1370,
            1536
          ],
          "Format/Datatype": "Float"
        }
      ],
      "TacticName": "sm80_xmma_gemm_f32f32_tf32f32_f32_nn_n_tilesize64x128x16_stage4_warpsize2x2x1_tensor16x8x8",
      "StreamId": 0,
      "Metadata": "[ONNX Layer: /blocks.10/mlp/fc1/MatMul]\u001f[ONNX Layer: /blocks.10/mlp/fc1/Add]"
    },
    {
      "Name": "__myl_DivErfAddMulMul_myl1_115",
      "LayerType": "kgen",
      "Inputs": [
        {
          "Name": "__myln_k_arg__bb1_144_myl1",
          "Dimensions": [
            1,
            1370,
            1536
          ],
          "Format/Datatype": "Float"
        },
        {
          "Name": "__myln_k_arg__bb1_144_myl1",
          "Dimensions": [
            1,
            1370,
            1536
          ],
          "Format/Datatype": "Float"
        }
      ],
      "Outputs": [
        {
          "Name": "/blocks_10/mlp/fc2/Add_output_0.1_145_myl1",
          "Dimensions": [
            1,
            1370,
            1536
          ],
          "Format/Datatype": "Float"
        }
      ],
      "TacticName": "__myl_DivErfAddMulMul_0xa13e1a5ba2820702b6e38bbb9fd5254b",
      "StreamId": 0,
      "Metadata": "[ONNX Layer: /blocks.10/mlp/act/Mul_1]\u001f[ONNX Layer: /blocks.10/mlp/act/Mul]\u001f[ONNX Layer: /blocks.10/mlp/act/Add]\u001f[ONNX Layer: /blocks.10/mlp/act/Div]\u001f[ONNX Layer: /blocks.10/mlp/act/Erf]"
    },
    {
      "Name": "/blocks_10/mlp/fc2/MatMul_myl1_116",
      "LayerType": "gemm",
      "Inputs": [
        {
          "Name": "/blocks_10/mlp/fc2/Add_output_0.1_145_myl1",
          "Dimensions": [
            1,
            1370,
            1536
          ],
          "Format/Datatype": "Float"
        }
      ],
      "Outputs": [
        {
          "Name": "__myln_k_arg__bb1_146_myl1",
          "Dimensions": [
            1,
            1370,
            384
          ],
          "Format/Datatype": "Float"
        }
      ],
      "TacticName": "sm86_xmma_gemm_f32f32_tf32f32_f32_tn_n_tilesize64x64x64_stage3_warpsize2x2x1_tensor16x8x8",
      "StreamId": 0,
      "Metadata": "[ONNX Layer: /blocks.10/mlp/fc2/MatMul]\u001f[ONNX Layer: /blocks.10/mlp/fc2/Add]"
    },
    {
      "Name": "__myl_MulAddMeanSubMulMeanAddSqrtDivMulMulAdd_myl1_117",
      "LayerType": "kgen",
      "Inputs": [
        {
          "Name": "__myln_k_arg__bb1_142_myl1",
          "Dimensions": [
            1,
            1370,
            384
          ],
          "Format/Datatype": "Float"
        },
        {
          "Name": "__myln_k_arg__bb1_146_myl1",
          "Dimensions": [
            1,
            1370,
            384
          ],
          "Format/Datatype": "Float"
        }
      ],
      "Outputs": [
        {
          "Name": "__mye57725_148_myl1",
          "Dimensions": [
            1,
            1370,
            384
          ],
          "Format/Datatype": "Float"
        },
        {
          "Name": "__myln_k_arg__bb1_147_myl1",
          "Dimensions": [
            1,
            1370,
            384
          ],
          "Format/Datatype": "Float"
        }
      ],
      "TacticName": "__myl_MulAddMeanSubMulMeanAddSqrtDivMulMulAdd_0x1468acd29c53e73f8b9006fcdc1f72ab",
      "StreamId": 0,
      "Metadata": "[ONNX Layer: /blocks.10/ls2/Mul]\u001f[ONNX Layer: /blocks.11/norm1/ReduceMean_1]\u001f[ONNX Layer: /blocks.11/norm1/Sub]\u001f[ONNX Layer: /blocks.11/norm1/Pow]\u001f[ONNX Layer: /blocks.11/norm1/ReduceMean]\u001f[ONNX Layer: /blocks.10/Add_1]\u001f[ONNX Layer: /blocks.11/norm1/Div]\u001f[ONNX Layer: /blocks.11/norm1/Add_1]\u001f[ONNX Layer: /blocks.11/norm1/Mul]\u001f[ONNX Layer: /blocks.11/norm1/Sqrt]\u001f[ONNX Layer: /blocks.11/norm1/Add]"
    },
    {
      "Name": "__mye56745+__mye56733+__mye56721_myl1_118",
      "LayerType": "gemm",
      "Inputs": [
        {
          "Name": "__mye57725_148_myl1",
          "Dimensions": [
            1,
            1370,
            384
          ],
          "Format/Datatype": "Float"
        }
      ],
      "Outputs": [
        {
          "Name": "__mye57725_myl1",
          "Dimensions": [
            3,
            1370,
            384
          ],
          "Format/Datatype": "Float"
        }
      ],
      "TacticName": "sm80_xmma_gemm_f32f32_tf32f32_f32_nn_n_tilesize64x128x16_stage4_warpsize2x2x1_tensor16x8x8",
      "StreamId": 0,
      "Metadata": "[ONNX Layer: /blocks.11/attn/qkv/MatMul]\u001f[ONNX Layer: /blocks.11/attn/qkv/Add]"
    },
    {
      "Name": "/blocks_11/attn/MatMul_myl1_119",
      "LayerType": "gemm",
      "Inputs": [
        {
          "Name": "__mye57725_myl1",
          "Dimensions": [
            6,
            1370,
            64
          ],
          "Format/Datatype": "Float"
        },
        {
          "Name": "__mye57725_myl1",
          "Dimensions": [
            6,
            64,
            1370
          ],
          "Format/Datatype": "Float"
        }
      ],
      "Outputs": [
        {
          "Name": "__mye54903_myl1",
          "Dimensions": [
            6,
            1370,
            1370
          ],
          "Format/Datatype": "Float"
        }
      ],
      "TacticName": "sm80_xmma_gemm_f32f32_tf32f32_f32_tn_n_tilesize64x128x16_stage4_warpsize2x2x1_tensor16x8x8_aligna4_alignc4",
      "StreamId": 0,
      "Metadata": "[ONNX Layer: /blocks.11/attn/MatMul]\u001f[ONNX Layer: /blocks.11/attn/Mul]"
    },
    {
      "Name": "__myl_MaxrSubExpSumDivMul_myl1_120",
      "LayerType": "kgen",
      "Inputs": [
        {
          "Name": "__mye54903_myl1",
          "Dimensions": [
            8220,
            1370
          ],
          "Format/Datatype": "Float"
        },
        {
          "Name": "__mye54903_myl1",
          "Dimensions": [
            8220,
            1370
          ],
          "Format/Datatype": "Float"
        }
      ],
      "Outputs": [
        {
          "Name": "/blocks_11/attn/Softmax_output.1_myl1",
          "Dimensions": [
            8220,
            1370
          ],
          "Format/Datatype": "Float"
        }
      ],
      "TacticName": "__myl_MaxrSubExpSumDivMul_0xe2034576008d721e860d6057ab737a9a",
      "StreamId": 0,
      "Metadata": "[ONNX Layer: /blocks.11/attn/Softmax]"
    },
    {
      "Name": "/blocks_11/attn/MatMul_1_myl1_121",
      "LayerType": "gemm",
      "Inputs": [
        {
          "Name": "/blocks_11/attn/Softmax_output.1_myl1",
          "Dimensions": [
            6,
            1370,
            1370
          ],
          "Format/Datatype": "Float"
        },
        {
          "Name": "__mye57725_myl1",
          "Dimensions": [
            6,
            1370,
            64
          ],
          "Format/Datatype": "Float"
        }
      ],
      "Outputs": [
        {
          "Name": "__mye54924_myl1",
          "Dimensions": [
            6,
            1370,
            64
          ],
          "Format/Datatype": "Float"
        }
      ],
      "TacticName": "sm80_xmma_gemm_f32f32_f32f32_f32_nn_n_tilesize64x64x8_stage3_warpsize1x4x1_ffma_aligna4_alignc4",
      "StreamId": 0,
      "Metadata": "[ONNX Layer: /blocks.11/attn/MatMul_1]"
    },
    {
      "Name": "/blocks_11/attn/proj/MatMul_myl1_122",
      "LayerType": "gemm",
      "Inputs": [
        {
          "Name": "__mye54924_myl1",
          "Dimensions": [
            1,
            1370,
            384
          ],
          "Format/Datatype": "Float"
        }
      ],
      "Outputs": [
        {
          "Name": "__myln_k_arg__bb1_153_myl1",
          "Dimensions": [
            1,
            1370,
            384
          ],
          "Format/Datatype": "Float"
        }
      ],
      "TacticName": "sm86_xmma_gemm_f32f32_tf32f32_f32_tn_n_tilesize64x64x64_stage3_warpsize2x2x1_tensor16x8x8",
      "StreamId": 0,
      "Metadata": "[ONNX Layer: /blocks.11/attn/proj/MatMul]\u001f[ONNX Layer: /blocks.11/attn/proj/Add]"
    },
    {
      "Name": "__myl_MulAddMeanSubMulMeanAddSqrtDivMulMulAdd_myl1_123",
      "LayerType": "kgen",
      "Inputs": [
        {
          "Name": "__myln_k_arg__bb1_147_myl1",
          "Dimensions": [
            1,
            1370,
            384
          ],
          "Format/Datatype": "Float"
        },
        {
          "Name": "__myln_k_arg__bb1_153_myl1",
          "Dimensions": [
            1,
            1370,
            384
          ],
          "Format/Datatype": "Float"
        }
      ],
      "Outputs": [
        {
          "Name": "/blocks_11/mlp/fc1/Add_output_0.1_155_myl1",
          "Dimensions": [
            1,
            1370,
            384
          ],
          "Format/Datatype": "Float"
        },
        {
          "Name": "__myln_k_arg__bb1_154_myl1",
          "Dimensions": [
            1,
            1370,
            384
          ],
          "Format/Datatype": "Float"
        }
      ],
      "TacticName": "__myl_MulAddMeanSubMulMeanAddSqrtDivMulMulAdd_0x1468acd29c53e73f8b9006fcdc1f72ab",
      "StreamId": 0,
      "Metadata": "[ONNX Layer: /blocks.11/ls1/Mul]\u001f[ONNX Layer: /blocks.11/norm2/ReduceMean_1]\u001f[ONNX Layer: /blocks.11/norm2/Sub]\u001f[ONNX Layer: /blocks.11/norm2/Pow]\u001f[ONNX Layer: /blocks.11/norm2/ReduceMean]\u001f[ONNX Layer: /blocks.11/Add]\u001f[ONNX Layer: /blocks.11/norm2/Div]\u001f[ONNX Layer: /blocks.11/norm2/Add_1]\u001f[ONNX Layer: /blocks.11/norm2/Mul]\u001f[ONNX Layer: /blocks.11/norm2/Sqrt]\u001f[ONNX Layer: /blocks.11/norm2/Add]"
    },
    {
      "Name": "/blocks_11/mlp/fc1/MatMul_myl1_124",
      "LayerType": "gemm",
      "Inputs": [
        {
          "Name": "/blocks_11/mlp/fc1/Add_output_0.1_155_myl1",
          "Dimensions": [
            1,
            1370,
            384
          ],
          "Format/Datatype": "Float"
        }
      ],
      "Outputs": [
        {
          "Name": "__myln_k_arg__bb1_156_myl1",
          "Dimensions": [
            1,
            1370,
            1536
          ],
          "Format/Datatype": "Float"
        }
      ],
      "TacticName": "sm80_xmma_gemm_f32f32_tf32f32_f32_nn_n_tilesize64x128x16_stage4_warpsize2x2x1_tensor16x8x8",
      "StreamId": 0,
      "Metadata": "[ONNX Layer: /blocks.11/mlp/fc1/MatMul]\u001f[ONNX Layer: /blocks.11/mlp/fc1/Add]"
    },
    {
      "Name": "__myl_DivErfAddMulMul_myl1_125",
      "LayerType": "kgen",
      "Inputs": [
        {
          "Name": "__myln_k_arg__bb1_156_myl1",
          "Dimensions": [
            1,
            1370,
            1536
          ],
          "Format/Datatype": "Float"
        },
        {
          "Name": "__myln_k_arg__bb1_156_myl1",
          "Dimensions": [
            1,
            1370,
            1536
          ],
          "Format/Datatype": "Float"
        }
      ],
      "Outputs": [
        {
          "Name": "/blocks_11/mlp/fc2/Add_output_0.1_157_myl1",
          "Dimensions": [
            1,
            1370,
            1536
          ],
          "Format/Datatype": "Float"
        }
      ],
      "TacticName": "__myl_DivErfAddMulMul_0xa13e1a5ba2820702b6e38bbb9fd5254b",
      "StreamId": 0,
      "Metadata": "[ONNX Layer: /blocks.11/mlp/act/Mul_1]\u001f[ONNX Layer: /blocks.11/mlp/act/Mul]\u001f[ONNX Layer: /blocks.11/mlp/act/Add]\u001f[ONNX Layer: /blocks.11/mlp/act/Div]\u001f[ONNX Layer: /blocks.11/mlp/act/Erf]"
    },
    {
      "Name": "/blocks_11/mlp/fc2/MatMul_myl1_126",
      "LayerType": "gemm",
      "Inputs": [
        {
          "Name": "/blocks_11/mlp/fc2/Add_output_0.1_157_myl1",
          "Dimensions": [
            1,
            1370,
            1536
          ],
          "Format/Datatype": "Float"
        }
      ],
      "Outputs": [
        {
          "Name": "__myln_k_arg__bb1_158_myl1",
          "Dimensions": [
            1,
            1370,
            384
          ],
          "Format/Datatype": "Float"
        }
      ],
      "TacticName": "sm86_xmma_gemm_f32f32_tf32f32_f32_tn_n_tilesize64x64x64_stage3_warpsize2x2x1_tensor16x8x8",
      "StreamId": 0,
      "Metadata": "[ONNX Layer: /blocks.11/mlp/fc2/MatMul]\u001f[ONNX Layer: /blocks.11/mlp/fc2/Add]"
    },
    {
      "Name": "__myl_MulAddMeanSubMulMean_myl1_127",
      "LayerType": "kgen",
      "Inputs": [
        {
          "Name": "__myln_k_arg__bb1_154_myl1",
          "Dimensions": [
            1,
            1370,
            384
          ],
          "Format/Datatype": "Float"
        },
        {
          "Name": "__myln_k_arg__bb1_158_myl1",
          "Dimensions": [
            1,
            1370,
            384
          ],
          "Format/Datatype": "Float"
        }
      ],
      "Outputs": [
        {
          "Name": "__myln_k_arg__bb1_160_myl1",
          "Dimensions": [
            1,
            1370,
            384
          ],
          "Format/Datatype": "Float"
        },
        {
          "Name": "__myln_k_arg__bb1_159_myl1",
          "Dimensions": [
            1,
            1370,
            1
          ],
          "Format/Datatype": "Float"
        }
      ],
      "TacticName": "__myl_MulAddMeanSubMulMean_0xee8795176531293a275c7604743a9d5a",
      "StreamId": 0,
      "Metadata": "[ONNX Layer: /blocks.11/ls2/Mul]\u001f[ONNX Layer: /norm_3/ReduceMean_1]\u001f[ONNX Layer: /norm_3/Sub]\u001f[ONNX Layer: /norm_3/Pow]\u001f[ONNX Layer: /norm_3/ReduceMean]\u001f[ONNX Layer: /blocks.11/Add_1]"
    },
    {
      "Name": "__myl_AddSqrtDivMulMulAddSlic_myl1_128",
      "LayerType": "kgen",
      "Inputs": [
        {
          "Name": "__myln_k_arg__bb1_160_myl1",
          "Dimensions": [
            1,
            1370,
            384
          ],
          "Format/Datatype": "Float"
        },
        {
          "Name": "__myln_k_arg__bb1_159_myl1",
          "Dimensions": [
            1,
            1370,
            1
          ],
          "Format/Datatype": "Float"
        }
      ],
      "Outputs": [
        {
          "Name": "__myln_k_arg__bb1_161_myl1",
          "Dimensions": [
            1,
            1369,
            384
          ],
          "Format/Datatype": "Float"
        }
      ],
      "TacticName": "__myl_AddSqrtDivMulMulAddSlic_0x035b1ba4ed8058f2413d78bf1d1689da",
      "StreamId": 0,
      "Metadata": "[ONNX Layer: /norm_3/Add]\u001f[ONNX Layer: /norm_3/Sqrt]\u001f[ONNX Layer: /norm_3/Div]\u001f[ONNX Layer: /norm_3/Mul]\u001f[ONNX Layer: /Slice_3]\u001f[ONNX Layer: /norm_3/Add_1]"
    },
    {
      "Name": "__myl_Tran_myl1_129",
      "LayerType": "kgen",
      "Inputs": [
        {
          "Name": "__myln_k_arg__bb1_161_myl1",
          "Dimensions": [
            1,
            1369,
            384
          ],
          "Format/Datatype": "Float"
        }
      ],
      "Outputs": [
        {
          "Name": "/depth_head/Reshape_3_output_0",
          "Dimensions": [
            1,
            384,
            1369
          ],
          "Format/Datatype": "Float"
        }
      ],
      "TacticName": "__myl_Tran_0xdcd1d5577a1f1b1cfd2c4babe6cbe7ad",
      "StreamId": 0,
      "Metadata": "[ONNX Layer: /depth_head/Transpose_3]\u001e[ONNX Layer: /depth_head/Reshape_3]"
    },
    {
      "Name": "Reformatting CopyNode for Input Tensor 0 to /depth_head/projects.3/Conv",
      "LayerType": "Reformat",
      "Inputs": [
        {
          "Name": "/depth_head/Reshape_3_output_0",
          "Location": "Device",
          "Dimensions": [
            1,
            384,
            37,
            37
          ],
          "Format/Datatype": "Float"
        }
      ],
      "Outputs": [
        {
          "Name": "Reformatted Input Tensor 0 to /depth_head/projects.3/Conv",
          "Location": "Device",
          "Dimensions": [
            1,
            384,
            37,
            37
          ],
          "Format/Datatype": "Int8"
        }
      ],
      "ParameterType": "Reformat",
      "Origin": "REFORMAT",
      "TacticValue": "0x00000000000003ea",
      "StreamId": 0,
      "Metadata": ""
    },
    {
      "Name": "/depth_head/projects.3/Conv",
      "LayerType": "CaskConvolution",
      "Inputs": [
        {
          "Name": "Reformatted Input Tensor 0 to /depth_head/projects.3/Conv",
          "Location": "Device",
          "Dimensions": [
            1,
            384,
            37,
            37
          ],
          "Format/Datatype": "Int8"
        }
      ],
      "Outputs": [
        {
          "Name": "/depth_head/projects.3/Conv_output_0",
          "Location": "Device",
          "Dimensions": [
            1,
            384,
            37,
            37
          ],
          "Format/Datatype": "Int8"
        }
      ],
      "ParameterType": "Convolution",
      "Kernel": [
        1,
        1
      ],
      "PaddingMode": "kEXPLICIT_ROUND_DOWN",
      "PrePadding": [
        0,
        0
      ],
      "PostPadding": [
        0,
        0
      ],
      "Stride": [
        1,
        1
      ],
      "Dilation": [
        1,
        1
      ],
      "OutMaps": 384,
      "Groups": 1,
      "Weights": {
        "Type": "Int8",
        "Count": 147456
      },
      "Bias": {
        "Type": "Float",
        "Count": 384
      },
      "HasBias": 1,
      "HasReLU": 0,
      "HasSparseWeights": 0,
      "HasDynamicFilter": 0,
      "HasDynamicBias": 0,
      "HasResidual": 0,
      "ConvXAsActInputIdx": -1,
      "BiasAsActInputIdx": -1,
      "ResAsActInputIdx": -1,
      "Activation": "NONE",
      "TacticName": "sm80_xmma_fprop_implicit_gemm_interleaved_i8i8_i8i32_f32_nchw_vect_c_32kcrs_vect_c_32_nchw_vect_c_32_tilesize96x64x64_stage3_warpsize2x2x1_g1_tensor16x8x32_t1r1s1",
      "TacticValue": "0xfa5f2e15625aa266",
      "StreamId": 0,
      "Metadata": "[ONNX Layer: /depth_head/projects.3/Conv]"
    },
    {
      "Name": "/depth_head/resize_layers.3/Conv",
      "LayerType": "CaskConvolution",
      "Inputs": [
        {
          "Name": "/depth_head/projects.3/Conv_output_0",
          "Location": "Device",
          "Dimensions": [
            1,
            384,
            37,
            37
          ],
          "Format/Datatype": "Int8"
        }
      ],
      "Outputs": [
        {
          "Name": "/depth_head/resize_layers.3/Conv_output_0",
          "Location": "Device",
          "Dimensions": [
            1,
            384,
            19,
            19
          ],
          "Format/Datatype": "Int8"
        }
      ],
      "ParameterType": "Convolution",
      "Kernel": [
        3,
        3
      ],
      "PaddingMode": "kEXPLICIT_ROUND_DOWN",
      "PrePadding": [
        1,
        1
      ],
      "PostPadding": [
        1,
        1
      ],
      "Stride": [
        2,
        2
      ],
      "Dilation": [
        1,
        1
      ],
      "OutMaps": 384,
      "Groups": 1,
      "Weights": {
        "Type": "Int8",
        "Count": 1327104
      },
      "Bias": {
        "Type": "Float",
        "Count": 384
      },
      "HasBias": 1,
      "HasReLU": 0,
      "HasSparseWeights": 0,
      "HasDynamicFilter": 0,
      "HasDynamicBias": 0,
      "HasResidual": 0,
      "ConvXAsActInputIdx": -1,
      "BiasAsActInputIdx": -1,
      "ResAsActInputIdx": -1,
      "Activation": "NONE",
      "TacticName": "sm80_xmma_fprop_implicit_gemm_interleaved_i8i8_i8i32_f32_nchw_vect_c_32kcrs_vect_c_32_nchw_vect_c_32_tilesize32x32x64_stage6_warpsize2x1x1_g1_tensor16x8x32_t1r3s3",
      "TacticValue": "0x4749124f62d8bd23",
      "StreamId": 0,
      "Metadata": "[ONNX Layer: /depth_head/resize_layers.3/Conv]"
    },
    {
      "Name": "/depth_head/layer4_rn/Conv",
      "LayerType": "CaskConvolution",
      "Inputs": [
        {
          "Name": "/depth_head/resize_layers.3/Conv_output_0",
          "Location": "Device",
          "Dimensions": [
            1,
            384,
            19,
            19
          ],
          "Format/Datatype": "Int8"
        }
      ],
      "Outputs": [
        {
          "Name": "/depth_head/layer4_rn/Conv_output_0",
          "Location": "Device",
          "Dimensions": [
            1,
            64,
            19,
            19
          ],
          "Format/Datatype": "Int8"
        }
      ],
      "ParameterType": "Convolution",
      "Kernel": [
        3,
        3
      ],
      "PaddingMode": "kEXPLICIT_ROUND_DOWN",
      "PrePadding": [
        1,
        1
      ],
      "PostPadding": [
        1,
        1
      ],
      "Stride": [
        1,
        1
      ],
      "Dilation": [
        1,
        1
      ],
      "OutMaps": 64,
      "Groups": 1,
      "Weights": {
        "Type": "Int8",
        "Count": 221184
      },
      "Bias": {
        "Type": "Float",
        "Count": 0
      },
      "HasBias": 0,
      "HasReLU": 0,
      "HasSparseWeights": 0,
      "HasDynamicFilter": 0,
      "HasDynamicBias": 0,
      "HasResidual": 0,
      "ConvXAsActInputIdx": -1,
      "BiasAsActInputIdx": -1,
      "ResAsActInputIdx": -1,
      "Activation": "NONE",
      "TacticName": "sm80_xmma_fprop_implicit_gemm_interleaved_i8i8_i8i32_f32_nchw_vect_c_32kcrs_vect_c_32_nchw_vect_c_32_tilesize32x32x64_stage6_warpsize2x1x1_g1_tensor16x8x32",
      "TacticValue": "0xee2fce9480a52be7",
      "StreamId": 0,
      "Metadata": "[ONNX Layer: /depth_head/layer4_rn/Conv]"
    },
    {
      "Name": "Reformatting CopyNode for Input Tensor 0 to /depth_head/projects.2/Conv",
      "LayerType": "Reformat",
      "Inputs": [
        {
          "Name": "/depth_head/Reshape_2_output_0",
          "Location": "Device",
          "Dimensions": [
            1,
            384,
            37,
            37
          ],
          "Format/Datatype": "Float"
        }
      ],
      "Outputs": [
        {
          "Name": "Reformatted Input Tensor 0 to /depth_head/projects.2/Conv",
          "Location": "Device",
          "Dimensions": [
            1,
            384,
            37,
            37
          ],
          "Format/Datatype": "Int8"
        }
      ],
      "ParameterType": "Reformat",
      "Origin": "REFORMAT",
      "TacticValue": "0x00000000000003ea",
      "StreamId": 0,
      "Metadata": ""
    },
    {
      "Name": "/depth_head/projects.2/Conv",
      "LayerType": "CaskConvolution",
      "Inputs": [
        {
          "Name": "Reformatted Input Tensor 0 to /depth_head/projects.2/Conv",
          "Location": "Device",
          "Dimensions": [
            1,
            384,
            37,
            37
          ],
          "Format/Datatype": "Int8"
        }
      ],
      "Outputs": [
        {
          "Name": "/depth_head/projects.2/Conv_output_0",
          "Location": "Device",
          "Dimensions": [
            1,
            192,
            37,
            37
          ],
          "Format/Datatype": "Int8"
        }
      ],
      "ParameterType": "Convolution",
      "Kernel": [
        1,
        1
      ],
      "PaddingMode": "kEXPLICIT_ROUND_DOWN",
      "PrePadding": [
        0,
        0
      ],
      "PostPadding": [
        0,
        0
      ],
      "Stride": [
        1,
        1
      ],
      "Dilation": [
        1,
        1
      ],
      "OutMaps": 192,
      "Groups": 1,
      "Weights": {
        "Type": "Int8",
        "Count": 73728
      },
      "Bias": {
        "Type": "Float",
        "Count": 192
      },
      "HasBias": 1,
      "HasReLU": 0,
      "HasSparseWeights": 0,
      "HasDynamicFilter": 0,
      "HasDynamicBias": 0,
      "HasResidual": 0,
      "ConvXAsActInputIdx": -1,
      "BiasAsActInputIdx": -1,
      "ResAsActInputIdx": -1,
      "Activation": "NONE",
      "TacticName": "sm80_xmma_fprop_implicit_gemm_interleaved_i8i8_i8i32_f32_nchw_vect_c_32kcrs_vect_c_32_nchw_vect_c_32_tilesize48x128x64_stage3_warpsize1x4x1_g1_tensor16x8x32_simple_t1r1s1",
      "TacticValue": "0x5314c155321a63a7",
      "StreamId": 0,
      "Metadata": "[ONNX Layer: /depth_head/projects.2/Conv]"
    },
    {
      "Name": "/depth_head/layer3_rn/Conv",
      "LayerType": "CaskConvolution",
      "Inputs": [
        {
          "Name": "/depth_head/projects.2/Conv_output_0",
          "Location": "Device",
          "Dimensions": [
            1,
            192,
            37,
            37
          ],
          "Format/Datatype": "Int8"
        }
      ],
      "Outputs": [
        {
          "Name": "/depth_head/layer3_rn/Conv_output_0",
          "Location": "Device",
          "Dimensions": [
            1,
            64,
            37,
            37
          ],
          "Format/Datatype": "Int8"
        }
      ],
      "ParameterType": "Convolution",
      "Kernel": [
        3,
        3
      ],
      "PaddingMode": "kEXPLICIT_ROUND_DOWN",
      "PrePadding": [
        1,
        1
      ],
      "PostPadding": [
        1,
        1
      ],
      "Stride": [
        1,
        1
      ],
      "Dilation": [
        1,
        1
      ],
      "OutMaps": 64,
      "Groups": 1,
      "Weights": {
        "Type": "Int8",
        "Count": 110592
      },
      "Bias": {
        "Type": "Float",
        "Count": 0
      },
      "HasBias": 0,
      "HasReLU": 0,
      "HasSparseWeights": 0,
      "HasDynamicFilter": 0,
      "HasDynamicBias": 0,
      "HasResidual": 0,
      "ConvXAsActInputIdx": -1,
      "BiasAsActInputIdx": -1,
      "ResAsActInputIdx": -1,
      "Activation": "NONE",
      "TacticName": "sm80_xmma_fprop_implicit_gemm_interleaved_i8i8_i8i32_f32_nchw_vect_c_32kcrs_vect_c_32_nchw_vect_c_32_tilesize32x32x64_stage6_warpsize2x1x1_g1_tensor16x8x32_t1r3s3",
      "TacticValue": "0x4749124f62d8bd23",
      "StreamId": 0,
      "Metadata": "[ONNX Layer: /depth_head/layer3_rn/Conv]"
    },
    {
      "Name": "Reformatting CopyNode for Input Tensor 0 to /depth_head/projects.1/Conv",
      "LayerType": "Reformat",
      "Inputs": [
        {
          "Name": "/depth_head/Reshape_1_output_0",
          "Location": "Device",
          "Dimensions": [
            1,
            384,
            37,
            37
          ],
          "Format/Datatype": "Float"
        }
      ],
      "Outputs": [
        {
          "Name": "Reformatted Input Tensor 0 to /depth_head/projects.1/Conv",
          "Location": "Device",
          "Dimensions": [
            1,
            384,
            37,
            37
          ],
          "Format/Datatype": "Int8"
        }
      ],
      "ParameterType": "Reformat",
      "Origin": "REFORMAT",
      "TacticValue": "0x00000000000003ea",
      "StreamId": 0,
      "Metadata": ""
    },
    {
      "Name": "/depth_head/projects.1/Conv",
      "LayerType": "CaskConvolution",
      "Inputs": [
        {
          "Name": "Reformatted Input Tensor 0 to /depth_head/projects.1/Conv",
          "Location": "Device",
          "Dimensions": [
            1,
            384,
            37,
            37
          ],
          "Format/Datatype": "Int8"
        }
      ],
      "Outputs": [
        {
          "Name": "/depth_head/projects.1/Conv_output_0",
          "Location": "Device",
          "Dimensions": [
            1,
            96,
            37,
            37
          ],
          "Format/Datatype": "Int8"
        }
      ],
      "ParameterType": "Convolution",
      "Kernel": [
        1,
        1
      ],
      "PaddingMode": "kEXPLICIT_ROUND_DOWN",
      "PrePadding": [
        0,
        0
      ],
      "PostPadding": [
        0,
        0
      ],
      "Stride": [
        1,
        1
      ],
      "Dilation": [
        1,
        1
      ],
      "OutMaps": 96,
      "Groups": 1,
      "Weights": {
        "Type": "Int8",
        "Count": 36864
      },
      "Bias": {
        "Type": "Float",
        "Count": 96
      },
      "HasBias": 1,
      "HasReLU": 0,
      "HasSparseWeights": 0,
      "HasDynamicFilter": 0,
      "HasDynamicBias": 0,
      "HasResidual": 0,
      "ConvXAsActInputIdx": -1,
      "BiasAsActInputIdx": -1,
      "ResAsActInputIdx": -1,
      "Activation": "NONE",
      "TacticName": "sm80_xmma_fprop_implicit_gemm_interleaved_i8i8_i8i32_f32_nchw_vect_c_32kcrs_vect_c_32_nchw_vect_c_32_tilesize32x32x64_stage6_warpsize2x1x1_g1_tensor16x8x32_simple_t1r1s1",
      "TacticValue": "0x3912ca79eb9a8be1",
      "StreamId": 0,
      "Metadata": "[ONNX Layer: /depth_head/projects.1/Conv]"
    },
    {
      "Name": "/depth_head/resize_layers.1/ConvTranspose",
      "LayerType": "CaskDeconvolutionV2",
      "Inputs": [
        {
          "Name": "/depth_head/projects.1/Conv_output_0",
          "Location": "Device",
          "Dimensions": [
            1,
            96,
            37,
            37
          ],
          "Format/Datatype": "Int8"
        }
      ],
      "Outputs": [
        {
          "Name": "/depth_head/resize_layers.1/ConvTranspose_output_0",
          "Location": "Device",
          "Dimensions": [
            1,
            96,
            74,
            74
          ],
          "Format/Datatype": "Int8"
        }
      ],
      "ParameterType": "Convolution",
      "Kernel": [
        2,
        2
      ],
      "PaddingMode": "kEXPLICIT_ROUND_DOWN",
      "PrePadding": [
        0,
        0
      ],
      "PostPadding": [
        0,
        0
      ],
      "Stride": [
        2,
        2
      ],
      "Dilation": [
        1,
        1
      ],
      "OutMaps": 96,
      "Groups": 1,
      "Weights": {
        "Type": "Int8",
        "Count": 36864
      },
      "Bias": {
        "Type": "Float",
        "Count": 96
      },
      "HasBias": 1,
      "HasReLU": 0,
      "HasSparseWeights": 0,
      "HasDynamicFilter": 0,
      "HasDynamicBias": 0,
      "HasResidual": 0,
      "ConvXAsActInputIdx": -1,
      "BiasAsActInputIdx": -1,
      "ResAsActInputIdx": -1,
      "Activation": "NONE",
      "TacticName": "sm80_xmma_deconv_implicit_gemm_interleaved_indexed_i8i8_i8i32_f32_nchw_vect_c_32kcrs_vect_n_32_nchw_vect_c_32_tilesize64x32x64_stage6_warpsize2x1x1_g1_tensor16x8x32_strided",
      "TacticValue": "0xea0d5db4acf015d1",
      "StreamId": 0,
      "Metadata": "[ONNX Layer: /depth_head/resize_layers.1/ConvTranspose]"
    },
    {
      "Name": "/depth_head/layer2_rn/Conv",
      "LayerType": "CaskConvolution",
      "Inputs": [
        {
          "Name": "/depth_head/resize_layers.1/ConvTranspose_output_0",
          "Location": "Device",
          "Dimensions": [
            1,
            96,
            74,
            74
          ],
          "Format/Datatype": "Int8"
        }
      ],
      "Outputs": [
        {
          "Name": "/depth_head/layer2_rn/Conv_output_0",
          "Location": "Device",
          "Dimensions": [
            1,
            64,
            74,
            74
          ],
          "Format/Datatype": "Int8"
        }
      ],
      "ParameterType": "Convolution",
      "Kernel": [
        3,
        3
      ],
      "PaddingMode": "kEXPLICIT_ROUND_DOWN",
      "PrePadding": [
        1,
        1
      ],
      "PostPadding": [
        1,
        1
      ],
      "Stride": [
        1,
        1
      ],
      "Dilation": [
        1,
        1
      ],
      "OutMaps": 64,
      "Groups": 1,
      "Weights": {
        "Type": "Int8",
        "Count": 55296
      },
      "Bias": {
        "Type": "Float",
        "Count": 0
      },
      "HasBias": 0,
      "HasReLU": 0,
      "HasSparseWeights": 0,
      "HasDynamicFilter": 0,
      "HasDynamicBias": 0,
      "HasResidual": 0,
      "ConvXAsActInputIdx": -1,
      "BiasAsActInputIdx": -1,
      "ResAsActInputIdx": -1,
      "Activation": "NONE",
      "TacticName": "sm80_xmma_fprop_implicit_gemm_interleaved_i8i8_i8i32_f32_nchw_vect_c_32kcrs_vect_c_32_nchw_vect_c_32_tilesize96x64x64_stage3_warpsize2x2x1_g1_tensor16x8x32_t1r3s3",
      "TacticValue": "0x70ccdad7e8ced9ab",
      "StreamId": 0,
      "Metadata": "[ONNX Layer: /depth_head/layer2_rn/Conv]"
    },
    {
      "Name": "Reformatting CopyNode for Input Tensor 0 to /depth_head/projects.0/Conv",
      "LayerType": "Reformat",
      "Inputs": [
        {
          "Name": "/depth_head/Reshape_output_0",
          "Location": "Device",
          "Dimensions": [
            1,
            384,
            37,
            37
          ],
          "Format/Datatype": "Float"
        }
      ],
      "Outputs": [
        {
          "Name": "Reformatted Input Tensor 0 to /depth_head/projects.0/Conv",
          "Location": "Device",
          "Dimensions": [
            1,
            384,
            37,
            37
          ],
          "Format/Datatype": "Int8"
        }
      ],
      "ParameterType": "Reformat",
      "Origin": "REFORMAT",
      "TacticValue": "0x00000000000003ea",
      "StreamId": 0,
      "Metadata": ""
    },
    {
      "Name": "/depth_head/projects.0/Conv",
      "LayerType": "CaskConvolution",
      "Inputs": [
        {
          "Name": "Reformatted Input Tensor 0 to /depth_head/projects.0/Conv",
          "Location": "Device",
          "Dimensions": [
            1,
            384,
            37,
            37
          ],
          "Format/Datatype": "Int8"
        }
      ],
      "Outputs": [
        {
          "Name": "/depth_head/projects.0/Conv_output_0",
          "Location": "Device",
          "Dimensions": [
            1,
            48,
            37,
            37
          ],
          "Format/Datatype": "Int8"
        }
      ],
      "ParameterType": "Convolution",
      "Kernel": [
        1,
        1
      ],
      "PaddingMode": "kEXPLICIT_ROUND_DOWN",
      "PrePadding": [
        0,
        0
      ],
      "PostPadding": [
        0,
        0
      ],
      "Stride": [
        1,
        1
      ],
      "Dilation": [
        1,
        1
      ],
      "OutMaps": 48,
      "Groups": 1,
      "Weights": {
        "Type": "Int8",
        "Count": 18432
      },
      "Bias": {
        "Type": "Float",
        "Count": 48
      },
      "HasBias": 1,
      "HasReLU": 0,
      "HasSparseWeights": 0,
      "HasDynamicFilter": 0,
      "HasDynamicBias": 0,
      "HasResidual": 0,
      "ConvXAsActInputIdx": -1,
      "BiasAsActInputIdx": -1,
      "ResAsActInputIdx": -1,
      "Activation": "NONE",
      "TacticName": "sm80_xmma_fprop_implicit_gemm_interleaved_i8i8_i8i32_f32_nchw_vect_c_32kcrs_vect_c_32_nchw_vect_c_32_tilesize96x32x64_stage4_warpsize2x1x1_g1_tensor16x8x32_simple_t1r1s1",
      "TacticValue": "0xf207dff9d0b58a85",
      "StreamId": 0,
      "Metadata": "[ONNX Layer: /depth_head/projects.0/Conv]"
    },
    {
      "Name": "/depth_head/resize_layers.0/ConvTranspose",
      "LayerType": "CaskDeconvolutionV2",
      "Inputs": [
        {
          "Name": "/depth_head/projects.0/Conv_output_0",
          "Location": "Device",
          "Dimensions": [
            1,
            48,
            37,
            37
          ],
          "Format/Datatype": "Int8"
        }
      ],
      "Outputs": [
        {
          "Name": "/depth_head/resize_layers.0/ConvTranspose_output_0",
          "Location": "Device",
          "Dimensions": [
            1,
            48,
            148,
            148
          ],
          "Format/Datatype": "Int8"
        }
      ],
      "ParameterType": "Convolution",
      "Kernel": [
        4,
        4
      ],
      "PaddingMode": "kEXPLICIT_ROUND_DOWN",
      "PrePadding": [
        0,
        0
      ],
      "PostPadding": [
        0,
        0
      ],
      "Stride": [
        4,
        4
      ],
      "Dilation": [
        1,
        1
      ],
      "OutMaps": 48,
      "Groups": 1,
      "Weights": {
        "Type": "Int8",
        "Count": 36864
      },
      "Bias": {
        "Type": "Float",
        "Count": 48
…
      "LayerType": "CaskConvolution",
      "Inputs": [
        {
          "Name": "/depth_head/refinenet2/resConfUnit1/activation/Relu_output_0",
          "Location": "Device",
          "Dimensions": [
            1,
            64,
            74,
            74
          ],
          "Format/Datatype": "Int8"
        }
      ],
      "Outputs": [
        {
          "Name": "/depth_head/refinenet2/resConfUnit1/activation_1/Relu_output_0",
          "Location": "Device",
          "Dimensions": [
            1,
            64,
            74,
            74
          ],
          "Format/Datatype": "Int8"
        }
      ],
      "ParameterType": "Convolution",
      "Kernel": [
        3,
        3
      ],
      "PaddingMode": "kEXPLICIT_ROUND_DOWN",
      "PrePadding": [
        1,
        1
      ],
      "PostPadding": [
        1,
        1
      ],
      "Stride": [
        1,
        1
      ],
      "Dilation": [
        1,
        1
      ],
      "OutMaps": 64,
      "Groups": 1,
      "Weights": {
        "Type": "Int8",
        "Count": 36864
      },
      "Bias": {
        "Type": "Float",
        "Count": 64
      },
      "HasBias": 1,
      "HasReLU": 1,
      "HasSparseWeights": 0,
      "HasDynamicFilter": 0,
      "HasDynamicBias": 0,
      "HasResidual": 0,
      "ConvXAsActInputIdx": -1,
      "BiasAsActInputIdx": -1,
      "ResAsActInputIdx": -1,
      "Activation": "RELU",
      "TacticName": "sm80_xmma_fprop_avdt_dense_int8int8_tilesize64x64x32_tapsperload9_threadspercta128_r3s3_u1v1_scalebias_relu",
      "TacticValue": "0xa5d08c37b22f092f",
      "StreamId": 0,
      "Metadata": "[ONNX Layer: /depth_head/refinenet2/resConfUnit1/conv1/Conv]\u001e[ONNX Layer: /depth_head/refinenet2/resConfUnit1/activation_1/Relu]"
    },
    {
      "Name": "/depth_head/refinenet3/resConfUnit1/conv1/Conv + /depth_head/refinenet3/resConfUnit1/activation_1/Relu",
      "LayerType": "CaskConvolution",
      "Inputs": [
        {
          "Name": "/depth_head/refinenet3/resConfUnit1/activation/Relu_output_0",
          "Location": "Device",
          "Dimensions": [
            1,
            64,
            37,
            37
          ],
          "Format/Datatype": "Int8"
        }
      ],
      "Outputs": [
        {
          "Name": "/depth_head/refinenet3/resConfUnit1/activation_1/Relu_output_0",
          "Location": "Device",
          "Dimensions": [
            1,
            64,
            37,
            37
          ],
          "Format/Datatype": "Int8"
        }
      ],
      "ParameterType": "Convolution",
      "Kernel": [
        3,
        3
      ],
      "PaddingMode": "kEXPLICIT_ROUND_DOWN",
      "PrePadding": [
        1,
        1
      ],
      "PostPadding": [
        1,
        1
      ],
      "Stride": [
        1,
        1
      ],
      "Dilation": [
        1,
        1
      ],
      "OutMaps": 64,
      "Groups": 1,
      "Weights": {
        "Type": "Int8",
        "Count": 36864
      },
      "Bias": {
        "Type": "Float",
        "Count": 64
      },
      "HasBias": 1,
      "HasReLU": 1,
      "HasSparseWeights": 0,
      "HasDynamicFilter": 0,
      "HasDynamicBias": 0,
      "HasResidual": 0,
      "ConvXAsActInputIdx": -1,
      "BiasAsActInputIdx": -1,
      "ResAsActInputIdx": -1,
      "Activation": "RELU",
      "TacticName": "sm80_xmma_fprop_avdt_dense_int8int8_tilesize64x64x32_tapsperload3_threadspercta128_r3s3_u1v1_scalebias_relu",
      "TacticValue": "0x1d53511430a5d47e",
      "StreamId": 0,
      "Metadata": "[ONNX Layer: /depth_head/refinenet3/resConfUnit1/conv1/Conv]\u001e[ONNX Layer: /depth_head/refinenet3/resConfUnit1/activation_1/Relu]"
    },
    {
      "Name": "/depth_head/refinenet4/resConfUnit2/conv1/Conv + /depth_head/refinenet4/resConfUnit2/activation_1/Relu",
      "LayerType": "CaskConvolution",
      "Inputs": [
        {
          "Name": "/depth_head/refinenet4/resConfUnit2/activation/Relu_output_0",
          "Location": "Device",
          "Dimensions": [
            1,
            64,
            19,
            19
          ],
          "Format/Datatype": "Int8"
        }
      ],
      "Outputs": [
        {
          "Name": "/depth_head/refinenet4/resConfUnit2/activation_1/Relu_output_0",
          "Location": "Device",
          "Dimensions": [
            1,
            64,
            19,
            19
          ],
          "Format/Datatype": "Int8"
        }
      ],
      "ParameterType": "Convolution",
      "Kernel": [
        3,
        3
      ],
      "PaddingMode": "kEXPLICIT_ROUND_DOWN",
      "PrePadding": [
        1,
        1
      ],
      "PostPadding": [
        1,
        1
      ],
      "Stride": [
        1,
        1
      ],
      "Dilation": [
        1,
        1
      ],
      "OutMaps": 64,
      "Groups": 1,
      "Weights": {
        "Type": "Int8",
        "Count": 36864
      },
      "Bias": {
        "Type": "Float",
        "Count": 64
      },
      "HasBias": 1,
      "HasReLU": 1,
      "HasSparseWeights": 0,
      "HasDynamicFilter": 0,
      "HasDynamicBias": 0,
      "HasResidual": 0,
      "ConvXAsActInputIdx": -1,
      "BiasAsActInputIdx": -1,
      "ResAsActInputIdx": -1,
      "Activation": "RELU",
      "TacticName": "sm80_xmma_fprop_avdt_dense_int8int8_tilesize64x64x32_tapsperload3_threadspercta128_r3s3_u1v1_scalebias_relu",
      "TacticValue": "0x1d53511430a5d47e",
      "StreamId": 0,
      "Metadata": "[ONNX Layer: /depth_head/refinenet4/resConfUnit2/conv1/Conv]\u001e[ONNX Layer: /depth_head/refinenet4/resConfUnit2/activation_1/Relu]"
    },
    {
      "Name": "/depth_head/refinenet4/resConfUnit2/conv2/Conv + /depth_head/refinenet4/resConfUnit2/Add",
      "LayerType": "CaskConvolution",
      "Inputs": [
        {
          "Name": "/depth_head/refinenet4/resConfUnit2/activation_1/Relu_output_0",
          "Location": "Device",
          "Dimensions": [
            1,
            64,
            19,
            19
          ],
          "Format/Datatype": "Int8"
        },
        {
          "Name": "/depth_head/layer4_rn/Conv_output_0",
          "Location": "Device",
          "Dimensions": [
            1,
            64,
            19,
            19
          ],
          "Format/Datatype": "Int8"
        }
      ],
      "Outputs": [
        {
          "Name": "/depth_head/refinenet4/resConfUnit2/Add_output_0",
          "Location": "Device",
          "Dimensions": [
            1,
            64,
            19,
            19
          ],
          "Format/Datatype": "Int8"
        }
      ],
      "ParameterType": "Convolution",
      "Kernel": [
        3,
        3
      ],
      "PaddingMode": "kEXPLICIT_ROUND_DOWN",
      "PrePadding": [
        1,
        1
      ],
      "PostPadding": [
        1,
        1
      ],
      "Stride": [
        1,
        1
      ],
      "Dilation": [
        1,
        1
      ],
      "OutMaps": 64,
      "Groups": 1,
      "Weights": {
        "Type": "Int8",
        "Count": 36864
      },
      "Bias": {
        "Type": "Float",
        "Count": 64
      },
      "HasBias": 1,
      "HasReLU": 0,
      "HasSparseWeights": 0,
      "HasDynamicFilter": 0,
      "HasDynamicBias": 0,
      "HasResidual": 1,
      "ConvXAsActInputIdx": -1,
      "BiasAsActInputIdx": -1,
      "ResAsActInputIdx": -1,
      "Activation": "NONE",
      "TacticName": "sm80_xmma_fprop_implicit_gemm_interleaved_i8i8_i8i32_f32_nchw_vect_c_32kcrs_vect_c_32_nchw_vect_c_32_tilesize32x32x64_stage6_warpsize2x1x1_g1_tensor16x8x32",
      "TacticValue": "0xee2fce9480a52be7",
      "StreamId": 0,
      "Metadata": "[ONNX Layer: /depth_head/refinenet4/resConfUnit2/conv2/Conv]\u001e[ONNX Layer: /depth_head/refinenet4/resConfUnit2/Add]"
    },
    {
      "Name": "/depth_head/refinenet4/Resize",
      "LayerType": "Resize",
      "Inputs": [
        {
          "Name": "/depth_head/refinenet4/resConfUnit2/Add_output_0",
          "Location": "Device",
          "Dimensions": [
            1,
            64,
            19,
            19
          ],
          "Format/Datatype": "Int8"
        }
      ],
      "Outputs": [
        {
          "Name": "/depth_head/refinenet4/Resize_output_0",
          "Location": "Device",
          "Dimensions": [
            1,
            64,
            37,
            37
          ],
          "Format/Datatype": "Int8"
        }
      ],
      "ParameterType": "Resize",
      "InterpolationMode": "LINEAR",
      "ResizeScales": [
        0,
        0,
        0,
        0,
        0,
        0,
        0,
        0
      ],
      "ExcludeOutside": 0,
      "CubicCoeff": -0.75,
      "CoordTransform": "kALIGN_CORNERS",
      "ResizeSelector": "kFORMULA",
      "NNRounding": "kFLOOR",
      "TacticValue": "0x0000000000000004",
      "StreamId": 0,
      "Metadata": "[ONNX Layer: /depth_head/refinenet4/Resize]"
    },
    {
      "Name": "/depth_head/refinenet3/resConfUnit1/conv2/Conv + /depth_head/refinenet3/resConfUnit1/Add",
      "LayerType": "CaskConvolution",
      "Inputs": [
        {
          "Name": "/depth_head/refinenet3/resConfUnit1/activation_1/Relu_output_0",
          "Location": "Device",
          "Dimensions": [
            1,
            64,
            37,
            37
          ],
          "Format/Datatype": "Int8"
        },
        {
          "Name": "/depth_head/layer3_rn/Conv_output_0",
          "Location": "Device",
          "Dimensions": [
            1,
            64,
            37,
            37
          ],
          "Format/Datatype": "Int8"
        }
      ],
      "Outputs": [
        {
          "Name": "/depth_head/refinenet3/resConfUnit1/Add_output_0",
          "Location": "Device",
          "Dimensions": [
            1,
            64,
            37,
            37
          ],
          "Format/Datatype": "Int8"
        }
      ],
      "ParameterType": "Convolution",
      "Kernel": [
        3,
        3
      ],
      "PaddingMode": "kEXPLICIT_ROUND_DOWN",
      "PrePadding": [
        1,
        1
      ],
      "PostPadding": [
        1,
        1
      ],
      "Stride": [
        1,
        1
      ],
      "Dilation": [
        1,
        1
      ],
      "OutMaps": 64,
      "Groups": 1,
      "Weights": {
        "Type": "Int8",
        "Count": 36864
      },
      "Bias": {
        "Type": "Float",
        "Count": 64
      },
      "HasBias": 1,
      "HasReLU": 0,
      "HasSparseWeights": 0,
      "HasDynamicFilter": 0,
      "HasDynamicBias": 0,
      "HasResidual": 1,
      "ConvXAsActInputIdx": -1,
      "BiasAsActInputIdx": -1,
      "ResAsActInputIdx": -1,
      "Activation": "NONE",
      "TacticName": "sm80_xmma_fprop_implicit_gemm_interleaved_i8i8_i8i32_f32_nchw_vect_c_32kcrs_vect_c_32_nchw_vect_c_32_tilesize32x64x64_stage6_warpsize2x2x1_g1_tensor16x8x32_t1r3s3",
      "TacticValue": "0xd3f592fae61c7986",
      "StreamId": 0,
      "Metadata": "[ONNX Layer: /depth_head/refinenet3/resConfUnit1/conv2/Conv]\u001e[ONNX Layer: /depth_head/refinenet3/resConfUnit1/Add]"
    },
    {
      "Name": "/depth_head/refinenet4/out_conv/Conv + /depth_head/refinenet3/Add",
      "LayerType": "CaskConvolution",
      "Inputs": [
        {
          "Name": "/depth_head/refinenet4/Resize_output_0",
          "Location": "Device",
          "Dimensions": [
            1,
            64,
            37,
            37
          ],
          "Format/Datatype": "Int8"
        },
        {
          "Name": "/depth_head/refinenet3/resConfUnit1/Add_output_0",
          "Location": "Device",
          "Dimensions": [
            1,
            64,
            37,
            37
          ],
          "Format/Datatype": "Int8"
        }
      ],
      "Outputs": [
        {
          "Name": "/depth_head/refinenet3/Add_output_0",
          "Location": "Device",
          "Dimensions": [
            1,
            64,
            37,
            37
          ],
          "Format/Datatype": "Int8"
        }
      ],
      "ParameterType": "Convolution",
      "Kernel": [
        1,
        1
      ],
      "PaddingMode": "kEXPLICIT_ROUND_DOWN",
      "PrePadding": [
        0,
        0
      ],
      "PostPadding": [
        0,
        0
      ],
      "Stride": [
        1,
        1
      ],
      "Dilation": [
        1,
        1
      ],
      "OutMaps": 64,
      "Groups": 1,
      "Weights": {
        "Type": "Int8",
        "Count": 4096
      },
      "Bias": {
        "Type": "Float",
        "Count": 64
      },
      "HasBias": 1,
      "HasReLU": 0,
      "HasSparseWeights": 0,
      "HasDynamicFilter": 0,
      "HasDynamicBias": 0,
      "HasResidual": 1,
      "ConvXAsActInputIdx": -1,
      "BiasAsActInputIdx": -1,
      "ResAsActInputIdx": -1,
      "Activation": "NONE",
      "TacticName": "sm80_xmma_fprop_implicit_gemm_interleaved_i8i8_i8i32_f32_nchw_vect_c_32kcrs_vect_c_32_nchw_vect_c_32_tilesize32x32x64_stage6_warpsize2x1x1_g1_tensor16x8x32_simple_t1r1s1",
      "TacticValue": "0x3912ca79eb9a8be1",
      "StreamId": 0,
      "Metadata": "[ONNX Layer: /depth_head/refinenet4/out_conv/Conv]\u001e[ONNX Layer: /depth_head/refinenet3/Add]"
    },
    {
      "Name": "PWN(/depth_head/refinenet3/resConfUnit2/activation/Relu)",
      "LayerType": "PointWiseV2",
      "Inputs": [
        {
          "Name": "/depth_head/refinenet3/Add_output_0",
          "Location": "Device",
          "Dimensions": [
            1,
            64,
            37,
            37
          ],
          "Format/Datatype": "Int8"
        }
      ],
      "Outputs": [
        {
          "Name": "/depth_head/refinenet3/resConfUnit2/activation/Relu_output_0",
          "Location": "Device",
          "Dimensions": [
            1,
            64,
            37,
            37
          ],
          "Format/Datatype": "Int8"
        }
      ],
      "ParameterType": "PointWise",
      "ParameterSubType": "PointWiseExpression",
      "NbInputArgs": 1,
      "InputArgs": [
        "arg0"
      ],
      "NbOutputVars": 1,
      "OutputVars": [
        "var0"
      ],
      "NbParams": 0,
      "Params": [],
      "NbLiterals": 4,
      "Literals": [
        "0.000000e+00f",
        "1.000000e+00f",
        "0.000000e+00f",
        "0.000000e+00f"
      ],
      "NbOperations": 1,
      "Operations": [
        "auto const var0 = pwgen::iMax(arg0, literal0);"
      ],
      "TacticValue": "0x0000000000000019",
      "StreamId": 0,
      "Metadata": "[ONNX Layer: /depth_head/refinenet3/resConfUnit2/activation/Relu]"
    },
    {
      "Name": "/depth_head/refinenet3/resConfUnit2/conv1/Conv + /depth_head/refinenet3/resConfUnit2/activation_1/Relu",
      "LayerType": "CaskConvolution",
      "Inputs": [
        {
          "Name": "/depth_head/refinenet3/resConfUnit2/activation/Relu_output_0",
          "Location": "Device",
          "Dimensions": [
            1,
            64,
            37,
            37
          ],
          "Format/Datatype": "Int8"
        }
      ],
      "Outputs": [
        {
          "Name": "/depth_head/refinenet3/resConfUnit2/activation_1/Relu_output_0",
          "Location": "Device",
          "Dimensions": [
            1,
            64,
            37,
            37
          ],
          "Format/Datatype": "Int8"
        }
      ],
      "ParameterType": "Convolution",
      "Kernel": [
        3,
        3
      ],
      "PaddingMode": "kEXPLICIT_ROUND_DOWN",
      "PrePadding": [
        1,
        1
      ],
      "PostPadding": [
        1,
        1
      ],
      "Stride": [
        1,
        1
      ],
      "Dilation": [
        1,
        1
      ],
      "OutMaps": 64,
      "Groups": 1,
      "Weights": {
        "Type": "Int8",
        "Count": 36864
      },
      "Bias": {
        "Type": "Float",
        "Count": 64
      },
      "HasBias": 1,
      "HasReLU": 1,
      "HasSparseWeights": 0,
      "HasDynamicFilter": 0,
      "HasDynamicBias": 0,
      "HasResidual": 0,
      "ConvXAsActInputIdx": -1,
      "BiasAsActInputIdx": -1,
      "ResAsActInputIdx": -1,
      "Activation": "RELU",
      "TacticName": "sm80_xmma_fprop_avdt_dense_int8int8_tilesize64x64x32_tapsperload3_threadspercta128_r3s3_u1v1_scalebias_relu",
      "TacticValue": "0x1d53511430a5d47e",
      "StreamId": 0,
      "Metadata": "[ONNX Layer: /depth_head/refinenet3/resConfUnit2/conv1/Conv]\u001e[ONNX Layer: /depth_head/refinenet3/resConfUnit2/activation_1/Relu]"
    },
    {
      "Name": "/depth_head/refinenet3/resConfUnit2/conv2/Conv + /depth_head/refinenet3/resConfUnit2/Add",
      "LayerType": "CaskConvolution",
      "Inputs": [
        {
          "Name": "/depth_head/refinenet3/resConfUnit2/activation_1/Relu_output_0",
          "Location": "Device",
          "Dimensions": [
            1,
            64,
            37,
            37
          ],
          "Format/Datatype": "Int8"
        },
        {
          "Name": "/depth_head/refinenet3/Add_output_0",
          "Location": "Device",
          "Dimensions": [
            1,
            64,
            37,
            37
          ],
          "Format/Datatype": "Int8"
        }
      ],
      "Outputs": [
        {
          "Name": "/depth_head/refinenet3/resConfUnit2/Add_output_0",
          "Location": "Device",
          "Dimensions": [
            1,
            64,
            37,
            37
          ],
          "Format/Datatype": "Int8"
        }
      ],
      "ParameterType": "Convolution",
      "Kernel": [
        3,
        3
      ],
      "PaddingMode": "kEXPLICIT_ROUND_DOWN",
      "PrePadding": [
        1,
        1
      ],
      "PostPadding": [
        1,
        1
      ],
      "Stride": [
        1,
        1
      ],
      "Dilation": [
        1,
        1
      ],
      "OutMaps": 64,
      "Groups": 1,
      "Weights": {
        "Type": "Int8",
        "Count": 36864
      },
      "Bias": {
        "Type": "Float",
        "Count": 64
      },
      "HasBias": 1,
      "HasReLU": 0,
      "HasSparseWeights": 0,
      "HasDynamicFilter": 0,
      "HasDynamicBias": 0,
      "HasResidual": 1,
      "ConvXAsActInputIdx": -1,
      "BiasAsActInputIdx": -1,
      "ResAsActInputIdx": -1,
      "Activation": "NONE",
      "TacticName": "sm80_xmma_fprop_implicit_gemm_interleaved_i8i8_i8i32_f32_nchw_vect_c_32kcrs_vect_c_32_nchw_vect_c_32_tilesize32x64x64_stage6_warpsize2x2x1_g1_tensor16x8x32_t1r3s3",
      "TacticValue": "0xd3f592fae61c7986",
      "StreamId": 0,
      "Metadata": "[ONNX Layer: /depth_head/refinenet3/resConfUnit2/conv2/Conv]\u001e[ONNX Layer: /depth_head/refinenet3/resConfUnit2/Add]"
    },
    {
      "Name": "/depth_head/refinenet3/Resize",
      "LayerType": "Resize",
      "Inputs": [
        {
          "Name": "/depth_head/refinenet3/resConfUnit2/Add_output_0",
          "Location": "Device",
          "Dimensions": [
            1,
            64,
            37,
            37
          ],
          "Format/Datatype": "Int8"
        }
      ],
      "Outputs": [
        {
          "Name": "/depth_head/refinenet3/Resize_output_0",
          "Location": "Device",
          "Dimensions": [
            1,
            64,
            74,
            74
          ],
          "Format/Datatype": "Int8"
        }
      ],
      "ParameterType": "Resize",
      "InterpolationMode": "LINEAR",
      "ResizeScales": [
        0,
        0,
        0,
        0,
        0,
        0,
        0,
        0
      ],
      "ExcludeOutside": 0,
      "CubicCoeff": -0.75,
      "CoordTransform": "kALIGN_CORNERS",
      "ResizeSelector": "kFORMULA",
      "NNRounding": "kFLOOR",
      "TacticValue": "0x0000000000000004",
      "StreamId": 0,
      "Metadata": "[ONNX Layer: /depth_head/refinenet3/Resize]"
    },
    {
      "Name": "/depth_head/refinenet2/resConfUnit1/conv2/Conv + /depth_head/refinenet2/resConfUnit1/Add",
      "LayerType": "CaskConvolution",
      "Inputs": [
        {
          "Name": "/depth_head/refinenet2/resConfUnit1/activation_1/Relu_output_0",
          "Location": "Device",
          "Dimensions": [
            1,
            64,
            74,
            74
          ],
          "Format/Datatype": "Int8"
        },
        {
          "Name": "/depth_head/layer2_rn/Conv_output_0",
          "Location": "Device",
          "Dimensions": [
            1,
            64,
            74,
            74
          ],
          "Format/Datatype": "Int8"
        }
      ],
      "Outputs": [
        {
          "Name": "/depth_head/refinenet2/resConfUnit1/Add_output_0",
          "Location": "Device",
          "Dimensions": [
            1,
            64,
            74,
            74
          ],
          "Format/Datatype": "Int8"
        }
      ],
      "ParameterType": "Convolution",
      "Kernel": [
        3,
        3
      ],
      "PaddingMode": "kEXPLICIT_ROUND_DOWN",
      "PrePadding": [
        1,
        1
      ],
      "PostPadding": [
        1,
        1
      ],
      "Stride": [
        1,
        1
      ],
      "Dilation": [
        1,
        1
      ],
      "OutMaps": 64,
      "Groups": 1,
      "Weights": {
        "Type": "Int8",
        "Count": 36864
      },
      "Bias": {
        "Type": "Float",
        "Count": 64
      },
      "HasBias": 1,
      "HasReLU": 0,
      "HasSparseWeights": 0,
      "HasDynamicFilter": 0,
      "HasDynamicBias": 0,
      "HasResidual": 1,
      "ConvXAsActInputIdx": -1,
      "BiasAsActInputIdx": -1,
      "ResAsActInputIdx": -1,
      "Activation": "NONE",
      "TacticName": "sm80_xmma_fprop_implicit_gemm_interleaved_i8i8_i8i32_f32_nchw_vect_c_32kcrs_vect_c_32_nchw_vect_c_32_tilesize64x64x64_stage6_warpsize2x2x1_g1_tensor16x8x32_t1r3s3",
      "TacticValue": "0xbb88763c3b0e94d4",
      "StreamId": 0,
      "Metadata": "[ONNX Layer: /depth_head/refinenet2/resConfUnit1/conv2/Conv]\u001e[ONNX Layer: /depth_head/refinenet2/resConfUnit1/Add]"
    },
    {
      "Name": "/depth_head/refinenet3/out_conv/Conv + /depth_head/refinenet2/Add",
      "LayerType": "CaskConvolution",
      "Inputs": [
        {
          "Name": "/depth_head/refinenet3/Resize_output_0",
          "Location": "Device",
          "Dimensions": [
            1,
            64,
            74,
            74
          ],
          "Format/Datatype": "Int8"
        },
        {
          "Name": "/depth_head/refinenet2/resConfUnit1/Add_output_0",
          "Location": "Device",
          "Dimensions": [
            1,
            64,
            74,
            74
          ],
          "Format/Datatype": "Int8"
        }
      ],
      "Outputs": [
        {
          "Name": "/depth_head/refinenet2/Add_output_0",
          "Location": "Device",
          "Dimensions": [
            1,
            64,
            74,
            74
          ],
          "Format/Datatype": "Int8"
        }
      ],
      "ParameterType": "Convolution",
      "Kernel": [
        1,
        1
      ],
      "PaddingMode": "kEXPLICIT_ROUND_DOWN",
      "PrePadding": [
        0,
        0
      ],
      "PostPadding": [
        0,
        0
      ],
      "Stride": [
        1,
        1
      ],
      "Dilation": [
        1,
        1
      ],
      "OutMaps": 64,
      "Groups": 1,
      "Weights": {
        "Type": "Int8",
        "Count": 4096
      },
      "Bias": {
        "Type": "Float",
        "Count": 64
      },
      "HasBias": 1,
      "HasReLU": 0,
      "HasSparseWeights": 0,
      "HasDynamicFilter": 0,
      "HasDynamicBias": 0,
      "HasResidual": 1,
      "ConvXAsActInputIdx": -1,
      "BiasAsActInputIdx": -1,
      "ResAsActInputIdx": -1,
      "Activation": "NONE",
      "TacticName": "sm80_xmma_fprop_implicit_gemm_interleaved_i8i8_i8i32_f32_nchw_vect_c_32kcrs_vect_c_32_nchw_vect_c_32_tilesize32x64x64_stage6_warpsize2x2x1_g1_tensor16x8x32_simple_t1r1s1",
      "TacticValue": "0x31de506085a332d4",
      "StreamId": 0,
      "Metadata": "[ONNX Layer: /depth_head/refinenet3/out_conv/Conv]\u001e[ONNX Layer: /depth_head/refinenet2/Add]"
    },
    {
      "Name": "PWN(/depth_head/refinenet2/resConfUnit2/activation/Relu)",
      "LayerType": "PointWiseV2",
      "Inputs": [
        {
          "Name": "/depth_head/refinenet2/Add_output_0",
          "Location": "Device",
          "Dimensions": [
            1,
            64,
            74,
            74
          ],
          "Format/Datatype": "Int8"
        }
      ],
      "Outputs": [
        {
          "Name": "/depth_head/refinenet2/resConfUnit2/activation/Relu_output_0",
          "Location": "Device",
          "Dimensions": [
            1,
            64,
            74,
            74
          ],
          "Format/Datatype": "Int8"
        }
      ],
      "ParameterType": "PointWise",
      "ParameterSubType": "PointWiseExpression",
      "NbInputArgs": 1,
      "InputArgs": [
        "arg0"
      ],
      "NbOutputVars": 1,
      "OutputVars": [
        "var0"
      ],
      "NbParams": 0,
      "Params": [],
      "NbLiterals": 4,
      "Literals": [
        "0.000000e+00f",
        "1.000000e+00f",
        "0.000000e+00f",
        "0.000000e+00f"
      ],
      "NbOperations": 1,
      "Operations": [
        "auto const var0 = pwgen::iMax(arg0, literal0);"
      ],
      "TacticValue": "0x0000000000000018",
      "StreamId": 0,
      "Metadata": "[ONNX Layer: /depth_head/refinenet2/resConfUnit2/activation/Relu]"
    },
    {
      "Name": "/depth_head/refinenet2/resConfUnit2/conv1/Conv + /depth_head/refinenet2/resConfUnit2/activation_1/Relu",
      "LayerType": "CaskConvolution",
      "Inputs": [
        {
          "Name": "/depth_head/refinenet2/resConfUnit2/activation/Relu_output_0",
          "Location": "Device",
          "Dimensions": [
            1,
            64,
            74,
            74
          ],
          "Format/Datatype": "Int8"
        }
      ],
      "Outputs": [
        {
          "Name": "/depth_head/refinenet2/resConfUnit2/activation_1/Relu_output_0",
          "Location": "Device",
          "Dimensions": [
            1,
            64,
            74,
            74
          ],
          "Format/Datatype": "Int8"
        }
      ],
      "ParameterType": "Convolution",
      "Kernel": [
        3,
        3
      ],
      "PaddingMode": "kEXPLICIT_ROUND_DOWN",
      "PrePadding": [
        1,
        1
      ],
      "PostPadding": [
        1,
        1
      ],
      "Stride": [
        1,
        1
      ],
      "Dilation": [
        1,
        1
      ],
      "OutMaps": 64,
      "Groups": 1,
      "Weights": {
        "Type": "Int8",
        "Count": 36864
      },
      "Bias": {
        "Type": "Float",
        "Count": 64
      },
      "HasBias": 1,
      "HasReLU": 1,
      "HasSparseWeights": 0,
      "HasDynamicFilter": 0,
      "HasDynamicBias": 0,
      "HasResidual": 0,
      "ConvXAsActInputIdx": -1,
      "BiasAsActInputIdx": -1,
      "ResAsActInputIdx": -1,
      "Activation": "RELU",
      "TacticName": "sm80_xmma_fprop_avdt_dense_int8int8_tilesize64x64x32_tapsperload9_threadspercta128_r3s3_u1v1_scalebias_relu",
      "TacticValue": "0xa5d08c37b22f092f",
      "StreamId": 0,
      "Metadata": "[ONNX Layer: /depth_head/refinenet2/resConfUnit2/conv1/Conv]\u001e[ONNX Layer: /depth_head/refinenet2/resConfUnit2/activation_1/Relu]"
    },
    {
      "Name": "/depth_head/refinenet2/resConfUnit2/conv2/Conv + /depth_head/refinenet2/resConfUnit2/Add",
      "LayerType": "CaskConvolution",
      "Inputs": [
        {
          "Name": "/depth_head/refinenet2/resConfUnit2/activation_1/Relu_output_0",
          "Location": "Device",
          "Dimensions": [
            1,
            64,
            74,
            74
          ],
          "Format/Datatype": "Int8"
        },
        {
          "Name": "/depth_head/refinenet2/Add_output_0",
          "Location": "Device",
          "Dimensions": [
            1,
            64,
            74,
            74
          ],
          "Format/Datatype": "Int8"
        }
      ],
      "Outputs": [
        {
          "Name": "/depth_head/refinenet2/resConfUnit2/Add_output_0",
          "Location": "Device",
          "Dimensions": [
            1,
            64,
            74,
            74
          ],
          "Format/Datatype": "Int8"
        }
      ],
      "ParameterType": "Convolution",
      "Kernel": [
        3,
        3
      ],
      "PaddingMode": "kEXPLICIT_ROUND_DOWN",
      "PrePadding": [
        1,
        1
      ],
      "PostPadding": [
        1,
        1
      ],
      "Stride": [
        1,
        1
      ],
      "Dilation": [
        1,
        1
      ],
      "OutMaps": 64,
      "Groups": 1,
      "Weights": {
        "Type": "Int8",
        "Count": 36864
      },
      "Bias": {
        "Type": "Float",
        "Count": 64
      },
      "HasBias": 1,
      "HasReLU": 0,
      "HasSparseWeights": 0,
      "HasDynamicFilter": 0,
      "HasDynamicBias": 0,
      "HasResidual": 1,
      "ConvXAsActInputIdx": -1,
      "BiasAsActInputIdx": -1,
      "ResAsActInputIdx": -1,
      "Activation": "NONE",
      "TacticName": "sm80_xmma_fprop_implicit_gemm_interleaved_i8i8_i8i32_f32_nchw_vect_c_32kcrs_vect_c_32_nchw_vect_c_32_tilesize64x64x64_stage6_warpsize2x2x1_g1_tensor16x8x32_t1r3s3",
      "TacticValue": "0xbb88763c3b0e94d4",
      "StreamId": 0,
      "Metadata": "[ONNX Layer: /depth_head/refinenet2/resConfUnit2/conv2/Conv]\u001e[ONNX Layer: /depth_head/refinenet2/resConfUnit2/Add]"
    },
    {
      "Name": "/depth_head/refinenet2/Resize",
      "LayerType": "Resize",
      "Inputs": [
        {
          "Name": "/depth_head/refinenet2/resConfUnit2/Add_output_0",
          "Location": "Device",
          "Dimensions": [
            1,
            64,
            74,
            74
          ],
          "Format/Datatype": "Int8"
        }
      ],
      "Outputs": [
        {
          "Name": "/depth_head/refinenet2/Resize_output_0",
          "Location": "Device",
          "Dimensions": [
            1,
            64,
            148,
            148
          ],
          "Format/Datatype": "Int8"
        }
      ],
      "ParameterType": "Resize",
      "InterpolationMode": "LINEAR",
      "ResizeScales": [
        0,
        0,
        0,
        0,
        0,
        0,
        0,
        0
      ],
      "ExcludeOutside": 0,
      "CubicCoeff": -0.75,
      "CoordTransform": "kALIGN_CORNERS",
      "ResizeSelector": "kFORMULA",
      "NNRounding": "kFLOOR",
      "TacticValue": "0x0000000000000007",
      "StreamId": 0,
      "Metadata": "[ONNX Layer: /depth_head/refinenet2/Resize]"
    },
    {
      "Name": "/depth_head/refinenet1/resConfUnit1/conv2/Conv + /depth_head/refinenet1/resConfUnit1/Add",
      "LayerType": "CaskConvolution",
      "Inputs": [
        {
          "Name": "/depth_head/refinenet1/resConfUnit1/activation_1/Relu_output_0",
          "Location": "Device",
          "Dimensions": [
            1,
            64,
            148,
            148
          ],
          "Format/Datatype": "Int8"
        },
        {
          "Name": "/depth_head/layer1_rn/Conv_output_0",
          "Location": "Device",
          "Dimensions": [
            1,
            64,
            148,
            148
          ],
          "Format/Datatype": "Int8"
        }
      ],
      "Outputs": [
        {
          "Name": "/depth_head/refinenet1/resConfUnit1/Add_output_0",
          "Location": "Device",
          "Dimensions": [
            1,
            64,
            148,
            148
          ],
          "Format/Datatype": "Int8"
        }
      ],
      "ParameterType": "Convolution",
      "Kernel": [
        3,
        3
      ],
      "PaddingMode": "kEXPLICIT_ROUND_DOWN",
      "PrePadding": [
        1,
        1
      ],
      "PostPadding": [
        1,
        1
      ],
      "Stride": [
        1,
        1
      ],
      "Dilation": [
        1,
        1
      ],
      "OutMaps": 64,
      "Groups": 1,
      "Weights": {
        "Type": "Int8",
        "Count": 36864
      },
      "Bias": {
        "Type": "Float",
        "Count": 64
      },
      "HasBias": 1,
      "HasReLU": 0,
      "HasSparseWeights": 0,
      "HasDynamicFilter": 0,
      "HasDynamicBias": 0,
      "HasResidual": 1,
      "ConvXAsActInputIdx": -1,
      "BiasAsActInputIdx": -1,
      "ResAsActInputIdx": -1,
      "Activation": "NONE",
      "TacticName": "sm80_xmma_fprop_implicit_gemm_interleaved_i8i8_i8i32_f32_nchw_vect_c_32kcrs_vect_c_32_nchw_vect_c_32_tilesize192x64x64_stage3_warpsize4x1x1_g1_tensor16x8x32_t1r3s3",
      "TacticValue": "0xef01fb6e433afa50",
      "StreamId": 0,
      "Metadata": "[ONNX Layer: /depth_head/refinenet1/resConfUnit1/conv2/Conv]\u001e[ONNX Layer: /depth_head/refinenet1/resConfUnit1/Add]"
    },
    {
      "Name": "/depth_head/refinenet2/out_conv/Conv + /depth_head/refinenet1/Add",
      "LayerType": "CaskConvolution",
      "Inputs": [
        {
          "Name": "/depth_head/refinenet2/Resize_output_0",
          "Location": "Device",
          "Dimensions": [
            1,
            64,
            148,
            148
          ],
          "Format/Datatype": "Int8"
        },
        {
          "Name": "/depth_head/refinenet1/resConfUnit1/Add_output_0",
          "Location": "Device",
          "Dimensions": [
            1,
            64,
            148,
            148
          ],
          "Format/Datatype": "Int8"
        }
      ],
      "Outputs": [
        {
          "Name": "/depth_head/refinenet1/Add_output_0",
          "Location": "Device",
          "Dimensions": [
            1,
            64,
            148,
            148
          ],
          "Format/Datatype": "Int8"
        }
      ],
      "ParameterType": "Convolution",
      "Kernel": [
        1,
        1
      ],
      "PaddingMode": "kEXPLICIT_ROUND_DOWN",
      "PrePadding": [
        0,
        0
      ],
      "PostPadding": [
        0,
        0
      ],
      "Stride": [
        1,
        1
      ],
      "Dilation": [
        1,
        1
      ],
      "OutMaps": 64,
      "Groups": 1,
      "Weights": {
        "Type": "Int8",
        "Count": 4096
      },
      "Bias": {
        "Type": "Float",
        "Count": 64
      },
      "HasBias": 1,
      "HasReLU": 0,
      "HasSparseWeights": 0,
      "HasDynamicFilter": 0,
      "HasDynamicBias": 0,
      "HasResidual": 1,
      "ConvXAsActInputIdx": -1,
      "BiasAsActInputIdx": -1,
      "ResAsActInputIdx": -1,
      "Activation": "NONE",
      "TacticName": "sm80_xmma_fprop_implicit_gemm_interleaved_i8i8_i8i32_f32_nchw_vect_c_32kcrs_vect_c_32_nchw_vect_c_32_tilesize96x64x64_stage3_warpsize2x2x1_g1_tensor16x8x32_simple_t1r1s1",
      "TacticValue": "0x483ad1560c6e5e27",
      "StreamId": 0,
      "Metadata": "[ONNX Layer: /depth_head/refinenet2/out_conv/Conv]\u001e[ONNX Layer: /depth_head/refinenet1/Add]"
    },
    {
      "Name": "PWN(/depth_head/refinenet1/resConfUnit2/activation/Relu)",
      "LayerType": "PointWiseV2",
      "Inputs": [
        {
          "Name": "/depth_head/refinenet1/Add_output_0",
          "Location": "Device",
          "Dimensions": [
            1,
            64,
            148,
            148
          ],
          "Format/Datatype": "Int8"
        }
      ],
      "Outputs": [
        {
          "Name": "/depth_head/refinenet1/resConfUnit2/activation/Relu_output_0",
          "Location": "Device",
          "Dimensions": [
            1,
            64,
            148,
            148
          ],
          "Format/Datatype": "Int8"
        }
      ],
      "ParameterType": "PointWise",
      "ParameterSubType": "PointWiseExpression",
      "NbInputArgs": 1,
      "InputArgs": [
        "arg0"
      ],
      "NbOutputVars": 1,
      "OutputVars": [
        "var0"
      ],
      "NbParams": 0,
      "Params": [],
      "NbLiterals": 4,
      "Literals": [
        "0.000000e+00f",
        "1.000000e+00f",
        "0.000000e+00f",
        "0.000000e+00f"
      ],
      "NbOperations": 1,
      "Operations": [
        "auto const var0 = pwgen::iMax(arg0, literal0);"
      ],
      "TacticValue": "0x0000000000000015",
      "StreamId": 0,
      "Metadata": "[ONNX Layer: /depth_head/refinenet1/resConfUnit2/activation/Relu]"
    },
    {
      "Name": "/depth_head/refinenet1/resConfUnit2/conv1/Conv + /depth_head/refinenet1/resConfUnit2/activation_1/Relu",
      "LayerType": "CaskConvolution",
      "Inputs": [
        {
          "Name": "/depth_head/refinenet1/resConfUnit2/activation/Relu_output_0",
          "Location": "Device",
          "Dimensions": [
            1,
            64,
            148,
            148
          ],
          "Format/Datatype": "Int8"
        }
      ],
      "Outputs": [
        {
          "Name": "/depth_head/refinenet1/resConfUnit2/activation_1/Relu_output_0",
          "Location": "Device",
          "Dimensions": [
            1,
            64,
            148,
            148
          ],
          "Format/Datatype": "Int8"
        }
      ],
      "ParameterType": "Convolution",
      "Kernel": [
        3,
        3
      ],
      "PaddingMode": "kEXPLICIT_ROUND_DOWN",
      "PrePadding": [
        1,
        1
      ],
      "PostPadding": [
        1,
        1
      ],
      "Stride": [
        1,
        1
      ],
      "Dilation": [
        1,
        1
      ],
      "OutMaps": 64,
      "Groups": 1,
      "Weights": {
        "Type": "Int8",
        "Count": 36864
      },
      "Bias": {
        "Type": "Float",
        "Count": 64
      },
      "HasBias": 1,
      "HasReLU": 1,
      "HasSparseWeights": 0,
      "HasDynamicFilter": 0,
      "HasDynamicBias": 0,
      "HasResidual": 0,
      "ConvXAsActInputIdx": -1,
      "BiasAsActInputIdx": -1,
      "ResAsActInputIdx": -1,
      "Activation": "RELU",
      "TacticName": "sm80_xmma_fprop_avdt_dense_int8int8_tilesize64x256x32_tapsperload3_threadspercta128_r3s3_u1v1_scalebias_relu",
      "TacticValue": "0x9dafb2758560cc1d",
      "StreamId": 0,
      "Metadata": "[ONNX Layer: /depth_head/refinenet1/resConfUnit2/conv1/Conv]\u001e[ONNX Layer: /depth_head/refinenet1/resConfUnit2/activation_1/Relu]"
    },
    {
      "Name": "/depth_head/refinenet1/resConfUnit2/conv2/Conv + /depth_head/refinenet1/resConfUnit2/Add",
      "LayerType": "CaskConvolution",
      "Inputs": [
        {
          "Name": "/depth_head/refinenet1/resConfUnit2/activation_1/Relu_output_0",
          "Location": "Device",
          "Dimensions": [
            1,
            64,
            148,
            148
          ],
          "Format/Datatype": "Int8"
        },
        {
          "Name": "/depth_head/refinenet1/Add_output_0",
          "Location": "Device",
          "Dimensions": [
            1,
            64,
            148,
            148
          ],
          "Format/Datatype": "Int8"
        }
      ],
      "Outputs": [
        {
          "Name": "/depth_head/refinenet1/resConfUnit2/Add_output_0",
          "Location": "Device",
          "Dimensions": [
            1,
            64,
            148,
            148
          ],
          "Format/Datatype": "Int8"
        }
      ],
      "ParameterType": "Convolution",
      "Kernel": [
        3,
        3
      ],
      "PaddingMode": "kEXPLICIT_ROUND_DOWN",
      "PrePadding": [
        1,
        1
      ],
      "PostPadding": [
        1,
        1
      ],
      "Stride": [
        1,
        1
      ],
      "Dilation": [
        1,
        1
      ],
      "OutMaps": 64,
      "Groups": 1,
      "Weights": {
        "Type": "Int8",
        "Count": 36864
      },
      "Bias": {
        "Type": "Float",
        "Count": 64
      },
      "HasBias": 1,
      "HasReLU": 0,
      "HasSparseWeights": 0,
      "HasDynamicFilter": 0,
      "HasDynamicBias": 0,
      "HasResidual": 1,
      "ConvXAsActInputIdx": -1,
      "BiasAsActInputIdx": -1,
      "ResAsActInputIdx": -1,
      "Activation": "NONE",
      "TacticName": "sm80_xmma_fprop_implicit_gemm_interleaved_i8i8_i8i32_f32_nchw_vect_c_32kcrs_vect_c_32_nchw_vect_c_32_tilesize192x64x64_stage3_warpsize4x1x1_g1_tensor16x8x32_t1r3s3",
      "TacticValue": "0xef01fb6e433afa50",
      "StreamId": 0,
      "Metadata": "[ONNX Layer: /depth_head/refinenet1/resConfUnit2/conv2/Conv]\u001e[ONNX Layer: /depth_head/refinenet1/resConfUnit2/Add]"
    },
    {
      "Name": "/depth_head/refinenet1/Resize",
      "LayerType": "Resize",
      "Inputs": [
        {
          "Name": "/depth_head/refinenet1/resConfUnit2/Add_output_0",
          "Location": "Device",
          "Dimensions": [
            1,
            64,
            148,
            148
          ],
          "Format/Datatype": "Int8"
        }
      ],
      "Outputs": [
        {
          "Name": "/depth_head/refinenet1/Resize_output_0",
          "Location": "Device",
          "Dimensions": [
            1,
            64,
            296,
            296
          ],
          "Format/Datatype": "Int8"
        }
      ],
      "ParameterType": "Resize",
      "InterpolationMode": "LINEAR",
      "ResizeScales": [
        1,
        1,
        2,
        2,
        0,
        0,
        0,
        0
      ],
      "ExcludeOutside": 0,
      "CubicCoeff": -0.75,
      "CoordTransform": "kALIGN_CORNERS",
      "ResizeSelector": "kFORMULA",
      "NNRounding": "kFLOOR",
      "TacticValue": "0x0000000000000007",
      "StreamId": 0,
      "Metadata": "[ONNX Layer: /depth_head/refinenet1/Resize]"
    },
    {
      "Name": "/depth_head/refinenet1/out_conv/Conv",
      "LayerType": "CaskConvolution",
      "Inputs": [
        {
          "Name": "/depth_head/refinenet1/Resize_output_0",
          "Location": "Device",
          "Dimensions": [
            1,
            64,
            296,
            296
          ],
          "Format/Datatype": "Int8"
        }
      ],
      "Outputs": [
        {
          "Name": "/depth_head/refinenet1/out_conv/Conv_output_0",
          "Location": "Device",
          "Dimensions": [
            1,
            64,
            296,
            296
          ],
          "Format/Datatype": "Int8"
        }
      ],
      "ParameterType": "Convolution",
      "Kernel": [
        1,
        1
      ],
      "PaddingMode": "kEXPLICIT_ROUND_DOWN",
      "PrePadding": [
        0,
        0
      ],
      "PostPadding": [
        0,
        0
      ],
      "Stride": [
        1,
        1
      ],
      "Dilation": [
        1,
        1
      ],
      "OutMaps": 64,
      "Groups": 1,
      "Weights": {
        "Type": "Int8",
        "Count": 4096
      },
      "Bias": {
        "Type": "Float",
        "Count": 64
      },
      "HasBias": 1,
      "HasReLU": 0,
      "HasSparseWeights": 0,
      "HasDynamicFilter": 0,
      "HasDynamicBias": 0,
      "HasResidual": 0,
      "ConvXAsActInputIdx": -1,
      "BiasAsActInputIdx": -1,
      "ResAsActInputIdx": -1,
      "Activation": "NONE",
      "TacticName": "sm80_xmma_fprop_implicit_gemm_interleaved_i8i8_i8i32_f32_nchw_vect_c_32kcrs_vect_c_32_nchw_vect_c_32_tilesize96x64x64_stage3_warpsize2x2x1_g1_tensor16x8x32_simple_t1r1s1",
      "TacticValue": "0x483ad1560c6e5e27",
      "StreamId": 0,
      "Metadata": "[ONNX Layer: /depth_head/refinenet1/out_conv/Conv]"
    },
    {
      "Name": "/depth_head/output_conv1/Conv",
      "LayerType": "CaskConvolution",
      "Inputs": [
        {
          "Name": "/depth_head/refinenet1/out_conv/Conv_output_0",
          "Location": "Device",
          "Dimensions": [
            1,
            64,
            296,
            296
          ],
          "Format/Datatype": "Int8"
        }
      ],
      "Outputs": [
        {
          "Name": "/depth_head/output_conv1/Conv_output_0",
          "Location": "Device",
          "Dimensions": [
            1,
            32,
            296,
            296
          ],
          "Format/Datatype": "Int8"
        }
      ],
      "ParameterType": "Convolution",
      "Kernel": [
        3,
        3
      ],
      "PaddingMode": "kEXPLICIT_ROUND_DOWN",
      "PrePadding": [
        1,
        1
      ],
      "PostPadding": [
        1,
        1
      ],
      "Stride": [
        1,
        1
      ],
      "Dilation": [
        1,
        1
      ],
      "OutMaps": 32,
      "Groups": 1,
      "Weights": {
        "Type": "Int8",
        "Count": 18432
      },
      "Bias": {
        "Type": "Float",
        "Count": 32
      },
      "HasBias": 1,
      "HasReLU": 0,
      "HasSparseWeights": 0,
      "HasDynamicFilter": 0,
      "HasDynamicBias": 0,
      "HasResidual": 0,
      "ConvXAsActInputIdx": -1,
      "BiasAsActInputIdx": -1,
      "ResAsActInputIdx": -1,
      "Activation": "NONE",
      "TacticName": "sm80_xmma_fprop_implicit_gemm_interleaved_i8i8_i8i32_f32_nchw_vect_c_32kcrs_vect_c_32_nchw_vect_c_32_tilesize96x32x64_stage4_warpsize2x1x1_g1_tensor16x8x32_t1r3s3",
      "TacticValue": "0x9262f8f95beb428d",
      "StreamId": 0,
      "Metadata": "[ONNX Layer: /depth_head/output_conv1/Conv]"
    },
    {
      "Name": "/depth_head/Resize",
      "LayerType": "Resize",
      "Inputs": [
        {
          "Name": "/depth_head/output_conv1/Conv_output_0",
          "Location": "Device",
          "Dimensions": [
            1,
            32,
            296,
            296
          ],
          "Format/Datatype": "Int8"
        }
      ],
      "Outputs": [
        {
          "Name": "/depth_head/Resize_output_0",
          "Location": "Device",
          "Dimensions": [
            1,
            32,
            518,
            518
          ],
          "Format/Datatype": "Int8"
        }
      ],
      "ParameterType": "Resize",
      "InterpolationMode": "LINEAR",
      "ResizeScales": [
        0,
        0,
        0,
        0,
        0,
        0,
        0,
        0
      ],
      "ExcludeOutside": 0,
      "CubicCoeff": -0.75,
      "CoordTransform": "kALIGN_CORNERS",
      "ResizeSelector": "kFORMULA",
      "NNRounding": "kFLOOR",
      "TacticValue": "0x0000000000000007",
      "StreamId": 0,
      "Metadata": "[ONNX Layer: /depth_head/Resize]"
    },
    {
      "Name": "/depth_head/output_conv2/output_conv2.0/Conv + /depth_head/output_conv2/output_conv2.1/Relu",
      "LayerType": "CaskConvolution",
      "Inputs": [
        {
          "Name": "/depth_head/Resize_output_0",
          "Location": "Device",
          "Dimensions": [
            1,
            32,
            518,
            518
          ],
          "Format/Datatype": "Int8"
        }
      ],
      "Outputs": [
        {
          "Name": "/depth_head/output_conv2/output_conv2.1/Relu_output_0",
          "Location": "Device",
          "Dimensions": [
            1,
            32,
            518,
            518
          ],
          "Format/Datatype": "Int8"
        }
      ],
      "ParameterType": "Convolution",
      "Kernel": [
        3,
        3
      ],
      "PaddingMode": "kEXPLICIT_ROUND_DOWN",
      "PrePadding": [
        1,
        1
      ],
      "PostPadding": [
        1,
        1
      ],
      "Stride": [
        1,
        1
      ],
      "Dilation": [
        1,
        1
      ],
      "OutMaps": 32,
      "Groups": 1,
      "Weights": {
        "Type": "Int8",
        "Count": 9216
      },
      "Bias": {
        "Type": "Float",
        "Count": 32
      },
      "HasBias": 1,
      "HasReLU": 1,
      "HasSparseWeights": 0,
      "HasDynamicFilter": 0,
      "HasDynamicBias": 0,
      "HasResidual": 0,
      "ConvXAsActInputIdx": -1,
      "BiasAsActInputIdx": -1,
      "ResAsActInputIdx": -1,
      "Activation": "RELU",
      "TacticName": "sm80_xmma_fprop_implicit_gemm_interleaved_i8i8_i8i32_f32_nchw_vect_c_32kcrs_vect_c_32_nchw_vect_c_32_tilesize96x32x64_stage4_warpsize2x1x1_g1_tensor16x8x32_t1r3s3",
      "TacticValue": "0x9262f8f95beb428d",
      "StreamId": 0,
      "Metadata": "[ONNX Layer: /depth_head/output_conv2/output_conv2.0/Conv]\u001e[ONNX Layer: /depth_head/output_conv2/output_conv2.1/Relu]"
    },
    {
      "Name": "/depth_head/output_conv2/output_conv2.2/Conv + /depth_head/output_conv2/output_conv2.3/Relu + /Relu",
      "LayerType": "CaskConvolution",
      "Inputs": [
        {
          "Name": "/depth_head/output_conv2/output_conv2.1/Relu_output_0",
          "Location": "Device",
          "Dimensions": [
            1,
            32,
            518,
            518
          ],
          "Format/Datatype": "Int8"
        }
      ],
      "Outputs": [
        {
          "Name": "output",
          "Location": "Device",
          "Dimensions": [
            1,
            1,
            518,
            518
          ],
          "Format/Datatype": "Float"
        }
      ],
      "ParameterType": "Convolution",
      "Kernel": [
        1,
        1
      ],
      "PaddingMode": "kEXPLICIT_ROUND_DOWN",
      "PrePadding": [
        0,
        0
      ],
      "PostPadding": [
        0,
        0
      ],
      "Stride": [
        1,
        1
      ],
      "Dilation": [
        1,
        1
      ],
      "OutMaps": 1,
      "Groups": 1,
      "Weights": {
        "Type": "Int8",
        "Count": 32
      },
      "Bias": {
        "Type": "Float",
        "Count": 1
      },
      "HasBias": 1,
      "HasReLU": 1,
      "HasSparseWeights": 0,
      "HasDynamicFilter": 0,
      "HasDynamicBias": 0,
      "HasResidual": 0,
      "ConvXAsActInputIdx": -1,
      "BiasAsActInputIdx": -1,
      "ResAsActInputIdx": -1,
      "Activation": "RELU",
      "TacticName": "sm80_xmma_fprop_implicit_gemm_interleaved_i8f32_i8i32_f32_nchw_vect_c_32kcrs_vect_c_32_nchw_tilesize128x32x64_stage4_warpsize4x1x1_g1_tensor16x8x32_t1r1s1_alignc4",
      "TacticValue": "0x733ba2a91a48d431",
      "StreamId": 0,
      "Metadata": "[ONNX Layer: /depth_head/output_conv2/output_conv2.2/Conv]\u001e[ONNX Layer: /depth_head/output_conv2/output_conv2.3/Relu]\u001e[ONNX Layer: /Relu]"
    }
  ],
  "Bindings": [
    "input",
    "output"
  ]
}